Layer name, IFMAP Height, IFMAP Width, Filter Height, Filter Width, Channels, Num Filter, Strides,

Linear1,               1024, 512,    1, 512,    1,      128,     1,
MHA_head_1_cal_query,  1024, 128,    1, 128,    1,      128,     1,
MHA_head_1_cal_key,    1024, 128,    1, 128,    1,      128,     1,
MHA_head_1_cal_value,  1024, 128,    1, 128,    1,      128,     1,
MHA_head_1_self_att1,  1024, 128,    1, 128,    1,      128,     1,
MHA_head_1_self_att2,  1024, 128,    1, 128,    1,      128,     1,
MHA_head_2_cal_query,  1024, 128,    1, 128,    1,      128,     1,
MHA_head_2_cal_key,    1024, 128,    1, 128,    1,      128,     1,
MHA_head_2_cal_value,  1024, 128,    1, 128,    1,      128,     1,
MHA_head_2_self_att1,  1024, 128,    1, 128,    1,      128,     1,
MHA_head_2_self_att2,  1024, 128,    1, 128,    1,      128,     1,
MHA_head_3_cal_query,  1024, 128,    1, 128,    1,      128,     1,
MHA_head_3_cal_key,    1024, 128,    1, 128,    1,      128,     1,
MHA_head_3_cal_value,  1024, 128,    1, 128,    1,      128,     1,
MHA_head_3_self_att1,  1024, 128,    1, 128,    1,      128,     1,
MHA_head_3_self_att2,  1024, 128,    1, 128,    1,      128,     1,
MHA_head_4_cal_query,  1024, 128,    1, 128,    1,      128,     1,
MHA_head_4_cal_key,    1024, 128,    1, 128,    1,      128,     1,
MHA_head_4_cal_value,  1024, 128,    1, 128,    1,      128,     1,
MHA_head_4_self_att1,  1024, 128,    1, 128,    1,      128,     1,
MHA_head_4_self_att2,  1024, 128,    1, 128,    1,      128,     1,
MHA_concat_final_op,   1024, 128,    1, 128,    1,      128,     1,
FFN1_input,            1024, 128,    1, 128,    1,      512,     1,
FFN1_inter,            1024, 512,    1, 512,    1,      128,     1,
FFN2_input,            1024, 128,    1, 128,    1,      512,     1,
FFN2_inter,            1024, 512,    1, 512,    1,      128,     1,
FFN3_input,            1024, 128,    1, 128,    1,      512,     1,
FFN3_inter,            1024, 512,    1, 512,    1,      128,     1,
FFN4_input,            1024, 128,    1, 128,    1,      512,     1,
FFN4_inter,            1024, 512,    1, 512,    1,      128,     1,
Linear2,               1024, 128,    1, 128,    1,      512,     1,

Linear1,               1024, 512,    1, 512,    1,      128,     1,
MHA_head_1_cal_query,  1024, 128,    1, 128,    1,      128,     1,
MHA_head_1_cal_key,    1024, 128,    1, 128,    1,      128,     1,
MHA_head_1_cal_value,  1024, 128,    1, 128,    1,      128,     1,
MHA_head_1_self_att1,  1024, 128,    1, 128,    1,      128,     1,
MHA_head_1_self_att2,  1024, 128,    1, 128,    1,      128,     1,
MHA_head_2_cal_query,  1024, 128,    1, 128,    1,      128,     1,
MHA_head_2_cal_key,    1024, 128,    1, 128,    1,      128,     1,
MHA_head_2_cal_value,  1024, 128,    1, 128,    1,      128,     1,
MHA_head_2_self_att1,  1024, 128,    1, 128,    1,      128,     1,
MHA_head_2_self_att2,  1024, 128,    1, 128,    1,      128,     1,
MHA_head_3_cal_query,  1024, 128,    1, 128,    1,      128,     1,
MHA_head_3_cal_key,    1024, 128,    1, 128,    1,      128,     1,
MHA_head_3_cal_value,  1024, 128,    1, 128,    1,      128,     1,
MHA_head_3_self_att1,  1024, 128,    1, 128,    1,      128,     1,
MHA_head_3_self_att2,  1024, 128,    1, 128,    1,      128,     1,
MHA_head_4_cal_query,  1024, 128,    1, 128,    1,      128,     1,
MHA_head_4_cal_key,    1024, 128,    1, 128,    1,      128,     1,
MHA_head_4_cal_value,  1024, 128,    1, 128,    1,      128,     1,
MHA_head_4_self_att1,  1024, 128,    1, 128,    1,      128,     1,
MHA_head_4_self_att2,  1024, 128,    1, 128,    1,      128,     1,
MHA_concat_final_op,   1024, 128,    1, 128,    1,      128,     1,
FFN1_input,            1024, 128,    1, 128,    1,      512,     1,
FFN1_inter,            1024, 512,    1, 512,    1,      128,     1,
FFN2_input,            1024, 128,    1, 128,    1,      512,     1,
FFN2_inter,            1024, 512,    1, 512,    1,      128,     1,
FFN3_input,            1024, 128,    1, 128,    1,      512,     1,
FFN3_inter,            1024, 512,    1, 512,    1,      128,     1,
FFN4_input,            1024, 128,    1, 128,    1,      512,     1,
FFN4_inter,            1024, 512,    1, 512,    1,      128,     1,
Linear2,               1024, 128,    1, 128,    1,      512,     1,

Linear1,               1024, 512,    1, 512,    1,      128,     1,
MHA_head_1_cal_query,  1024, 128,    1, 128,    1,      128,     1,
MHA_head_1_cal_key,    1024, 128,    1, 128,    1,      128,     1,
MHA_head_1_cal_value,  1024, 128,    1, 128,    1,      128,     1,
MHA_head_1_self_att1,  1024, 128,    1, 128,    1,      128,     1,
MHA_head_1_self_att2,  1024, 128,    1, 128,    1,      128,     1,
MHA_head_2_cal_query,  1024, 128,    1, 128,    1,      128,     1,
MHA_head_2_cal_key,    1024, 128,    1, 128,    1,      128,     1,
MHA_head_2_cal_value,  1024, 128,    1, 128,    1,      128,     1,
MHA_head_2_self_att1,  1024, 128,    1, 128,    1,      128,     1,
MHA_head_2_self_att2,  1024, 128,    1, 128,    1,      128,     1,
MHA_head_3_cal_query,  1024, 128,    1, 128,    1,      128,     1,
MHA_head_3_cal_key,    1024, 128,    1, 128,    1,      128,     1,
MHA_head_3_cal_value,  1024, 128,    1, 128,    1,      128,     1,
MHA_head_3_self_att1,  1024, 128,    1, 128,    1,      128,     1,
MHA_head_3_self_att2,  1024, 128,    1, 128,    1,      128,     1,
MHA_head_4_cal_query,  1024, 128,    1, 128,    1,      128,     1,
MHA_head_4_cal_key,    1024, 128,    1, 128,    1,      128,     1,
MHA_head_4_cal_value,  1024, 128,    1, 128,    1,      128,     1,
MHA_head_4_self_att1,  1024, 128,    1, 128,    1,      128,     1,
MHA_head_4_self_att2,  1024, 128,    1, 128,    1,      128,     1,
MHA_concat_final_op,   1024, 128,    1, 128,    1,      128,     1,
FFN1_input,            1024, 128,    1, 128,    1,      512,     1,
FFN1_inter,            1024, 512,    1, 512,    1,      128,     1,
FFN2_input,            1024, 128,    1, 128,    1,      512,     1,
FFN2_inter,            1024, 512,    1, 512,    1,      128,     1,
FFN3_input,            1024, 128,    1, 128,    1,      512,     1,
FFN3_inter,            1024, 512,    1, 512,    1,      128,     1,
FFN4_input,            1024, 128,    1, 128,    1,      512,     1,
FFN4_inter,            1024, 512,    1, 512,    1,      128,     1,
Linear2,               1024, 128,    1, 128,    1,      512,     1,

Linear1,               1024, 512,    1, 512,    1,      128,     1,
MHA_head_1_cal_query,  1024, 128,    1, 128,    1,      128,     1,
MHA_head_1_cal_key,    1024, 128,    1, 128,    1,      128,     1,
MHA_head_1_cal_value,  1024, 128,    1, 128,    1,      128,     1,
MHA_head_1_self_att1,  1024, 128,    1, 128,    1,      128,     1,
MHA_head_1_self_att2,  1024, 128,    1, 128,    1,      128,     1,
MHA_head_2_cal_query,  1024, 128,    1, 128,    1,      128,     1,
MHA_head_2_cal_key,    1024, 128,    1, 128,    1,      128,     1,
MHA_head_2_cal_value,  1024, 128,    1, 128,    1,      128,     1,
MHA_head_2_self_att1,  1024, 128,    1, 128,    1,      128,     1,
MHA_head_2_self_att2,  1024, 128,    1, 128,    1,      128,     1,
MHA_head_3_cal_query,  1024, 128,    1, 128,    1,      128,     1,
MHA_head_3_cal_key,    1024, 128,    1, 128,    1,      128,     1,
MHA_head_3_cal_value,  1024, 128,    1, 128,    1,      128,     1,
MHA_head_3_self_att1,  1024, 128,    1, 128,    1,      128,     1,
MHA_head_3_self_att2,  1024, 128,    1, 128,    1,      128,     1,
MHA_head_4_cal_query,  1024, 128,    1, 128,    1,      128,     1,
MHA_head_4_cal_key,    1024, 128,    1, 128,    1,      128,     1,
MHA_head_4_cal_value,  1024, 128,    1, 128,    1,      128,     1,
MHA_head_4_self_att1,  1024, 128,    1, 128,    1,      128,     1,
MHA_head_4_self_att2,  1024, 128,    1, 128,    1,      128,     1,
MHA_concat_final_op,   1024, 128,    1, 128,    1,      128,     1,
FFN1_input,            1024, 128,    1, 128,    1,      512,     1,
FFN1_inter,            1024, 512,    1, 512,    1,      128,     1,
FFN2_input,            1024, 128,    1, 128,    1,      512,     1,
FFN2_inter,            1024, 512,    1, 512,    1,      128,     1,
FFN3_input,            1024, 128,    1, 128,    1,      512,     1,
FFN3_inter,            1024, 512,    1, 512,    1,      128,     1,
FFN4_input,            1024, 128,    1, 128,    1,      512,     1,
FFN4_inter,            1024, 512,    1, 512,    1,      128,     1,
Linear2,               1024, 128,    1, 128,    1,      512,     1,

Linear1,               1024, 512,    1, 512,    1,      128,     1,
MHA_head_1_cal_query,  1024, 128,    1, 128,    1,      128,     1,
MHA_head_1_cal_key,    1024, 128,    1, 128,    1,      128,     1,
MHA_head_1_cal_value,  1024, 128,    1, 128,    1,      128,     1,
MHA_head_1_self_att1,  1024, 128,    1, 128,    1,      128,     1,
MHA_head_1_self_att2,  1024, 128,    1, 128,    1,      128,     1,
MHA_head_2_cal_query,  1024, 128,    1, 128,    1,      128,     1,
MHA_head_2_cal_key,    1024, 128,    1, 128,    1,      128,     1,
MHA_head_2_cal_value,  1024, 128,    1, 128,    1,      128,     1,
MHA_head_2_self_att1,  1024, 128,    1, 128,    1,      128,     1,
MHA_head_2_self_att2,  1024, 128,    1, 128,    1,      128,     1,
MHA_head_3_cal_query,  1024, 128,    1, 128,    1,      128,     1,
MHA_head_3_cal_key,    1024, 128,    1, 128,    1,      128,     1,
MHA_head_3_cal_value,  1024, 128,    1, 128,    1,      128,     1,
MHA_head_3_self_att1,  1024, 128,    1, 128,    1,      128,     1,
MHA_head_3_self_att2,  1024, 128,    1, 128,    1,      128,     1,
MHA_head_4_cal_query,  1024, 128,    1, 128,    1,      128,     1,
MHA_head_4_cal_key,    1024, 128,    1, 128,    1,      128,     1,
MHA_head_4_cal_value,  1024, 128,    1, 128,    1,      128,     1,
MHA_head_4_self_att1,  1024, 128,    1, 128,    1,      128,     1,
MHA_head_4_self_att2,  1024, 128,    1, 128,    1,      128,     1,
MHA_concat_final_op,   1024, 128,    1, 128,    1,      128,     1,
FFN1_input,            1024, 128,    1, 128,    1,      512,     1,
FFN1_inter,            1024, 512,    1, 512,    1,      128,     1,
FFN2_input,            1024, 128,    1, 128,    1,      512,     1,
FFN2_inter,            1024, 512,    1, 512,    1,      128,     1,
FFN3_input,            1024, 128,    1, 128,    1,      512,     1,
FFN3_inter,            1024, 512,    1, 512,    1,      128,     1,
FFN4_input,            1024, 128,    1, 128,    1,      512,     1,
FFN4_inter,            1024, 512,    1, 512,    1,      128,     1,
Linear2,               1024, 128,    1, 128,    1,      512,     1,

Linear1,               1024, 512,    1, 512,    1,      128,     1,
MHA_head_1_cal_query,  1024, 128,    1, 128,    1,      128,     1,
MHA_head_1_cal_key,    1024, 128,    1, 128,    1,      128,     1,
MHA_head_1_cal_value,  1024, 128,    1, 128,    1,      128,     1,
MHA_head_1_self_att1,  1024, 128,    1, 128,    1,      128,     1,
MHA_head_1_self_att2,  1024, 128,    1, 128,    1,      128,     1,
MHA_head_2_cal_query,  1024, 128,    1, 128,    1,      128,     1,
MHA_head_2_cal_key,    1024, 128,    1, 128,    1,      128,     1,
MHA_head_2_cal_value,  1024, 128,    1, 128,    1,      128,     1,
MHA_head_2_self_att1,  1024, 128,    1, 128,    1,      128,     1,
MHA_head_2_self_att2,  1024, 128,    1, 128,    1,      128,     1,
MHA_head_3_cal_query,  1024, 128,    1, 128,    1,      128,     1,
MHA_head_3_cal_key,    1024, 128,    1, 128,    1,      128,     1,
MHA_head_3_cal_value,  1024, 128,    1, 128,    1,      128,     1,
MHA_head_3_self_att1,  1024, 128,    1, 128,    1,      128,     1,
MHA_head_3_self_att2,  1024, 128,    1, 128,    1,      128,     1,
MHA_head_4_cal_query,  1024, 128,    1, 128,    1,      128,     1,
MHA_head_4_cal_key,    1024, 128,    1, 128,    1,      128,     1,
MHA_head_4_cal_value,  1024, 128,    1, 128,    1,      128,     1,
MHA_head_4_self_att1,  1024, 128,    1, 128,    1,      128,     1,
MHA_head_4_self_att2,  1024, 128,    1, 128,    1,      128,     1,
MHA_concat_final_op,   1024, 128,    1, 128,    1,      128,     1,
FFN1_input,            1024, 128,    1, 128,    1,      512,     1,
FFN1_inter,            1024, 512,    1, 512,    1,      128,     1,
FFN2_input,            1024, 128,    1, 128,    1,      512,     1,
FFN2_inter,            1024, 512,    1, 512,    1,      128,     1,
FFN3_input,            1024, 128,    1, 128,    1,      512,     1,
FFN3_inter,            1024, 512,    1, 512,    1,      128,     1,
FFN4_input,            1024, 128,    1, 128,    1,      512,     1,
FFN4_inter,            1024, 512,    1, 512,    1,      128,     1,
Linear2,               1024, 128,    1, 128,    1,      512,     1,

Linear1,               1024, 512,    1, 512,    1,      128,     1,
MHA_head_1_cal_query,  1024, 128,    1, 128,    1,      128,     1,
MHA_head_1_cal_key,    1024, 128,    1, 128,    1,      128,     1,
MHA_head_1_cal_value,  1024, 128,    1, 128,    1,      128,     1,
MHA_head_1_self_att1,  1024, 128,    1, 128,    1,      128,     1,
MHA_head_1_self_att2,  1024, 128,    1, 128,    1,      128,     1,
MHA_head_2_cal_query,  1024, 128,    1, 128,    1,      128,     1,
MHA_head_2_cal_key,    1024, 128,    1, 128,    1,      128,     1,
MHA_head_2_cal_value,  1024, 128,    1, 128,    1,      128,     1,
MHA_head_2_self_att1,  1024, 128,    1, 128,    1,      128,     1,
MHA_head_2_self_att2,  1024, 128,    1, 128,    1,      128,     1,
MHA_head_3_cal_query,  1024, 128,    1, 128,    1,      128,     1,
MHA_head_3_cal_key,    1024, 128,    1, 128,    1,      128,     1,
MHA_head_3_cal_value,  1024, 128,    1, 128,    1,      128,     1,
MHA_head_3_self_att1,  1024, 128,    1, 128,    1,      128,     1,
MHA_head_3_self_att2,  1024, 128,    1, 128,    1,      128,     1,
MHA_head_4_cal_query,  1024, 128,    1, 128,    1,      128,     1,
MHA_head_4_cal_key,    1024, 128,    1, 128,    1,      128,     1,
MHA_head_4_cal_value,  1024, 128,    1, 128,    1,      128,     1,
MHA_head_4_self_att1,  1024, 128,    1, 128,    1,      128,     1,
MHA_head_4_self_att2,  1024, 128,    1, 128,    1,      128,     1,
MHA_concat_final_op,   1024, 128,    1, 128,    1,      128,     1,
FFN1_input,            1024, 128,    1, 128,    1,      512,     1,
FFN1_inter,            1024, 512,    1, 512,    1,      128,     1,
FFN2_input,            1024, 128,    1, 128,    1,      512,     1,
FFN2_inter,            1024, 512,    1, 512,    1,      128,     1,
FFN3_input,            1024, 128,    1, 128,    1,      512,     1,
FFN3_inter,            1024, 512,    1, 512,    1,      128,     1,
FFN4_input,            1024, 128,    1, 128,    1,      512,     1,
FFN4_inter,            1024, 512,    1, 512,    1,      128,     1,
Linear2,               1024, 128,    1, 128,    1,      512,     1,

Linear1,               1024, 512,    1, 512,    1,      128,     1,
MHA_head_1_cal_query,  1024, 128,    1, 128,    1,      128,     1,
MHA_head_1_cal_key,    1024, 128,    1, 128,    1,      128,     1,
MHA_head_1_cal_value,  1024, 128,    1, 128,    1,      128,     1,
MHA_head_1_self_att1,  1024, 128,    1, 128,    1,      128,     1,
MHA_head_1_self_att2,  1024, 128,    1, 128,    1,      128,     1,
MHA_head_2_cal_query,  1024, 128,    1, 128,    1,      128,     1,
MHA_head_2_cal_key,    1024, 128,    1, 128,    1,      128,     1,
MHA_head_2_cal_value,  1024, 128,    1, 128,    1,      128,     1,
MHA_head_2_self_att1,  1024, 128,    1, 128,    1,      128,     1,
MHA_head_2_self_att2,  1024, 128,    1, 128,    1,      128,     1,
MHA_head_3_cal_query,  1024, 128,    1, 128,    1,      128,     1,
MHA_head_3_cal_key,    1024, 128,    1, 128,    1,      128,     1,
MHA_head_3_cal_value,  1024, 128,    1, 128,    1,      128,     1,
MHA_head_3_self_att1,  1024, 128,    1, 128,    1,      128,     1,
MHA_head_3_self_att2,  1024, 128,    1, 128,    1,      128,     1,
MHA_head_4_cal_query,  1024, 128,    1, 128,    1,      128,     1,
MHA_head_4_cal_key,    1024, 128,    1, 128,    1,      128,     1,
MHA_head_4_cal_value,  1024, 128,    1, 128,    1,      128,     1,
MHA_head_4_self_att1,  1024, 128,    1, 128,    1,      128,     1,
MHA_head_4_self_att2,  1024, 128,    1, 128,    1,      128,     1,
MHA_concat_final_op,   1024, 128,    1, 128,    1,      128,     1,
FFN1_input,            1024, 128,    1, 128,    1,      512,     1,
FFN1_inter,            1024, 512,    1, 512,    1,      128,     1,
FFN2_input,            1024, 128,    1, 128,    1,      512,     1,
FFN2_inter,            1024, 512,    1, 512,    1,      128,     1,
FFN3_input,            1024, 128,    1, 128,    1,      512,     1,
FFN3_inter,            1024, 512,    1, 512,    1,      128,     1,
FFN4_input,            1024, 128,    1, 128,    1,      512,     1,
FFN4_inter,            1024, 512,    1, 512,    1,      128,     1,
Linear2,               1024, 128,    1, 128,    1,      512,     1,

Linear1,               1024, 512,    1, 512,    1,      128,     1,
MHA_head_1_cal_query,  1024, 128,    1, 128,    1,      128,     1,
MHA_head_1_cal_key,    1024, 128,    1, 128,    1,      128,     1,
MHA_head_1_cal_value,  1024, 128,    1, 128,    1,      128,     1,
MHA_head_1_self_att1,  1024, 128,    1, 128,    1,      128,     1,
MHA_head_1_self_att2,  1024, 128,    1, 128,    1,      128,     1,
MHA_head_2_cal_query,  1024, 128,    1, 128,    1,      128,     1,
MHA_head_2_cal_key,    1024, 128,    1, 128,    1,      128,     1,
MHA_head_2_cal_value,  1024, 128,    1, 128,    1,      128,     1,
MHA_head_2_self_att1,  1024, 128,    1, 128,    1,      128,     1,
MHA_head_2_self_att2,  1024, 128,    1, 128,    1,      128,     1,
MHA_head_3_cal_query,  1024, 128,    1, 128,    1,      128,     1,
MHA_head_3_cal_key,    1024, 128,    1, 128,    1,      128,     1,
MHA_head_3_cal_value,  1024, 128,    1, 128,    1,      128,     1,
MHA_head_3_self_att1,  1024, 128,    1, 128,    1,      128,     1,
MHA_head_3_self_att2,  1024, 128,    1, 128,    1,      128,     1,
MHA_head_4_cal_query,  1024, 128,    1, 128,    1,      128,     1,
MHA_head_4_cal_key,    1024, 128,    1, 128,    1,      128,     1,
MHA_head_4_cal_value,  1024, 128,    1, 128,    1,      128,     1,
MHA_head_4_self_att1,  1024, 128,    1, 128,    1,      128,     1,
MHA_head_4_self_att2,  1024, 128,    1, 128,    1,      128,     1,
MHA_concat_final_op,   1024, 128,    1, 128,    1,      128,     1,
FFN1_input,            1024, 128,    1, 128,    1,      512,     1,
FFN1_inter,            1024, 512,    1, 512,    1,      128,     1,
FFN2_input,            1024, 128,    1, 128,    1,      512,     1,
FFN2_inter,            1024, 512,    1, 512,    1,      128,     1,
FFN3_input,            1024, 128,    1, 128,    1,      512,     1,
FFN3_inter,            1024, 512,    1, 512,    1,      128,     1,
FFN4_input,            1024, 128,    1, 128,    1,      512,     1,
FFN4_inter,            1024, 512,    1, 512,    1,      128,     1,
Linear2,               1024, 128,    1, 128,    1,      512,     1,

Linear1,               1024, 512,    1, 512,    1,      128,     1,
MHA_head_1_cal_query,  1024, 128,    1, 128,    1,      128,     1,
MHA_head_1_cal_key,    1024, 128,    1, 128,    1,      128,     1,
MHA_head_1_cal_value,  1024, 128,    1, 128,    1,      128,     1,
MHA_head_1_self_att1,  1024, 128,    1, 128,    1,      128,     1,
MHA_head_1_self_att2,  1024, 128,    1, 128,    1,      128,     1,
MHA_head_2_cal_query,  1024, 128,    1, 128,    1,      128,     1,
MHA_head_2_cal_key,    1024, 128,    1, 128,    1,      128,     1,
MHA_head_2_cal_value,  1024, 128,    1, 128,    1,      128,     1,
MHA_head_2_self_att1,  1024, 128,    1, 128,    1,      128,     1,
MHA_head_2_self_att2,  1024, 128,    1, 128,    1,      128,     1,
MHA_head_3_cal_query,  1024, 128,    1, 128,    1,      128,     1,
MHA_head_3_cal_key,    1024, 128,    1, 128,    1,      128,     1,
MHA_head_3_cal_value,  1024, 128,    1, 128,    1,      128,     1,
MHA_head_3_self_att1,  1024, 128,    1, 128,    1,      128,     1,
MHA_head_3_self_att2,  1024, 128,    1, 128,    1,      128,     1,
MHA_head_4_cal_query,  1024, 128,    1, 128,    1,      128,     1,
MHA_head_4_cal_key,    1024, 128,    1, 128,    1,      128,     1,
MHA_head_4_cal_value,  1024, 128,    1, 128,    1,      128,     1,
MHA_head_4_self_att1,  1024, 128,    1, 128,    1,      128,     1,
MHA_head_4_self_att2,  1024, 128,    1, 128,    1,      128,     1,
MHA_concat_final_op,   1024, 128,    1, 128,    1,      128,     1,
FFN1_input,            1024, 128,    1, 128,    1,      512,     1,
FFN1_inter,            1024, 512,    1, 512,    1,      128,     1,
FFN2_input,            1024, 128,    1, 128,    1,      512,     1,
FFN2_inter,            1024, 512,    1, 512,    1,      128,     1,
FFN3_input,            1024, 128,    1, 128,    1,      512,     1,
FFN3_inter,            1024, 512,    1, 512,    1,      128,     1,
FFN4_input,            1024, 128,    1, 128,    1,      512,     1,
FFN4_inter,            1024, 512,    1, 512,    1,      128,     1,
Linear2,               1024, 128,    1, 128,    1,      512,     1,

Linear1,               1024, 512,    1, 512,    1,      128,     1,
MHA_head_1_cal_query,  1024, 128,    1, 128,    1,      128,     1,
MHA_head_1_cal_key,    1024, 128,    1, 128,    1,      128,     1,
MHA_head_1_cal_value,  1024, 128,    1, 128,    1,      128,     1,
MHA_head_1_self_att1,  1024, 128,    1, 128,    1,      128,     1,
MHA_head_1_self_att2,  1024, 128,    1, 128,    1,      128,     1,
MHA_head_2_cal_query,  1024, 128,    1, 128,    1,      128,     1,
MHA_head_2_cal_key,    1024, 128,    1, 128,    1,      128,     1,
MHA_head_2_cal_value,  1024, 128,    1, 128,    1,      128,     1,
MHA_head_2_self_att1,  1024, 128,    1, 128,    1,      128,     1,
MHA_head_2_self_att2,  1024, 128,    1, 128,    1,      128,     1,
MHA_head_3_cal_query,  1024, 128,    1, 128,    1,      128,     1,
MHA_head_3_cal_key,    1024, 128,    1, 128,    1,      128,     1,
MHA_head_3_cal_value,  1024, 128,    1, 128,    1,      128,     1,
MHA_head_3_self_att1,  1024, 128,    1, 128,    1,      128,     1,
MHA_head_3_self_att2,  1024, 128,    1, 128,    1,      128,     1,
MHA_head_4_cal_query,  1024, 128,    1, 128,    1,      128,     1,
MHA_head_4_cal_key,    1024, 128,    1, 128,    1,      128,     1,
MHA_head_4_cal_value,  1024, 128,    1, 128,    1,      128,     1,
MHA_head_4_self_att1,  1024, 128,    1, 128,    1,      128,     1,
MHA_head_4_self_att2,  1024, 128,    1, 128,    1,      128,     1,
MHA_concat_final_op,   1024, 128,    1, 128,    1,      128,     1,
FFN1_input,            1024, 128,    1, 128,    1,      512,     1,
FFN1_inter,            1024, 512,    1, 512,    1,      128,     1,
FFN2_input,            1024, 128,    1, 128,    1,      512,     1,
FFN2_inter,            1024, 512,    1, 512,    1,      128,     1,
FFN3_input,            1024, 128,    1, 128,    1,      512,     1,
FFN3_inter,            1024, 512,    1, 512,    1,      128,     1,
FFN4_input,            1024, 128,    1, 128,    1,      512,     1,
FFN4_inter,            1024, 512,    1, 512,    1,      128,     1,
Linear2,               1024, 128,    1, 128,    1,      512,     1,

Linear1,               1024, 512,    1, 512,    1,      128,     1,
MHA_head_1_cal_query,  1024, 128,    1, 128,    1,      128,     1,
MHA_head_1_cal_key,    1024, 128,    1, 128,    1,      128,     1,
MHA_head_1_cal_value,  1024, 128,    1, 128,    1,      128,     1,
MHA_head_1_self_att1,  1024, 128,    1, 128,    1,      128,     1,
MHA_head_1_self_att2,  1024, 128,    1, 128,    1,      128,     1,
MHA_head_2_cal_query,  1024, 128,    1, 128,    1,      128,     1,
MHA_head_2_cal_key,    1024, 128,    1, 128,    1,      128,     1,
MHA_head_2_cal_value,  1024, 128,    1, 128,    1,      128,     1,
MHA_head_2_self_att1,  1024, 128,    1, 128,    1,      128,     1,
MHA_head_2_self_att2,  1024, 128,    1, 128,    1,      128,     1,
MHA_head_3_cal_query,  1024, 128,    1, 128,    1,      128,     1,
MHA_head_3_cal_key,    1024, 128,    1, 128,    1,      128,     1,
MHA_head_3_cal_value,  1024, 128,    1, 128,    1,      128,     1,
MHA_head_3_self_att1,  1024, 128,    1, 128,    1,      128,     1,
MHA_head_3_self_att2,  1024, 128,    1, 128,    1,      128,     1,
MHA_head_4_cal_query,  1024, 128,    1, 128,    1,      128,     1,
MHA_head_4_cal_key,    1024, 128,    1, 128,    1,      128,     1,
MHA_head_4_cal_value,  1024, 128,    1, 128,    1,      128,     1,
MHA_head_4_self_att1,  1024, 128,    1, 128,    1,      128,     1,
MHA_head_4_self_att2,  1024, 128,    1, 128,    1,      128,     1,
MHA_concat_final_op,   1024, 128,    1, 128,    1,      128,     1,
FFN1_input,            1024, 128,    1, 128,    1,      512,     1,
FFN1_inter,            1024, 512,    1, 512,    1,      128,     1,
FFN2_input,            1024, 128,    1, 128,    1,      512,     1,
FFN2_inter,            1024, 512,    1, 512,    1,      128,     1,
FFN3_input,            1024, 128,    1, 128,    1,      512,     1,
FFN3_inter,            1024, 512,    1, 512,    1,      128,     1,
FFN4_input,            1024, 128,    1, 128,    1,      512,     1,
FFN4_inter,            1024, 512,    1, 512,    1,      128,     1,
Linear2,               1024, 128,    1, 128,    1,      512,     1,

Linear1,               1024, 512,    1, 512,    1,      128,     1,
MHA_head_1_cal_query,  1024, 128,    1, 128,    1,      128,     1,
MHA_head_1_cal_key,    1024, 128,    1, 128,    1,      128,     1,
MHA_head_1_cal_value,  1024, 128,    1, 128,    1,      128,     1,
MHA_head_1_self_att1,  1024, 128,    1, 128,    1,      128,     1,
MHA_head_1_self_att2,  1024, 128,    1, 128,    1,      128,     1,
MHA_head_2_cal_query,  1024, 128,    1, 128,    1,      128,     1,
MHA_head_2_cal_key,    1024, 128,    1, 128,    1,      128,     1,
MHA_head_2_cal_value,  1024, 128,    1, 128,    1,      128,     1,
MHA_head_2_self_att1,  1024, 128,    1, 128,    1,      128,     1,
MHA_head_2_self_att2,  1024, 128,    1, 128,    1,      128,     1,
MHA_head_3_cal_query,  1024, 128,    1, 128,    1,      128,     1,
MHA_head_3_cal_key,    1024, 128,    1, 128,    1,      128,     1,
MHA_head_3_cal_value,  1024, 128,    1, 128,    1,      128,     1,
MHA_head_3_self_att1,  1024, 128,    1, 128,    1,      128,     1,
MHA_head_3_self_att2,  1024, 128,    1, 128,    1,      128,     1,
MHA_head_4_cal_query,  1024, 128,    1, 128,    1,      128,     1,
MHA_head_4_cal_key,    1024, 128,    1, 128,    1,      128,     1,
MHA_head_4_cal_value,  1024, 128,    1, 128,    1,      128,     1,
MHA_head_4_self_att1,  1024, 128,    1, 128,    1,      128,     1,
MHA_head_4_self_att2,  1024, 128,    1, 128,    1,      128,     1,
MHA_concat_final_op,   1024, 128,    1, 128,    1,      128,     1,
FFN1_input,            1024, 128,    1, 128,    1,      512,     1,
FFN1_inter,            1024, 512,    1, 512,    1,      128,     1,
FFN2_input,            1024, 128,    1, 128,    1,      512,     1,
FFN2_inter,            1024, 512,    1, 512,    1,      128,     1,
FFN3_input,            1024, 128,    1, 128,    1,      512,     1,
FFN3_inter,            1024, 512,    1, 512,    1,      128,     1,
FFN4_input,            1024, 128,    1, 128,    1,      512,     1,
FFN4_inter,            1024, 512,    1, 512,    1,      128,     1,
Linear2,               1024, 128,    1, 128,    1,      512,     1,

Linear1,               1024, 512,    1, 512,    1,      128,     1,
MHA_head_1_cal_query,  1024, 128,    1, 128,    1,      128,     1,
MHA_head_1_cal_key,    1024, 128,    1, 128,    1,      128,     1,
MHA_head_1_cal_value,  1024, 128,    1, 128,    1,      128,     1,
MHA_head_1_self_att1,  1024, 128,    1, 128,    1,      128,     1,
MHA_head_1_self_att2,  1024, 128,    1, 128,    1,      128,     1,
MHA_head_2_cal_query,  1024, 128,    1, 128,    1,      128,     1,
MHA_head_2_cal_key,    1024, 128,    1, 128,    1,      128,     1,
MHA_head_2_cal_value,  1024, 128,    1, 128,    1,      128,     1,
MHA_head_2_self_att1,  1024, 128,    1, 128,    1,      128,     1,
MHA_head_2_self_att2,  1024, 128,    1, 128,    1,      128,     1,
MHA_head_3_cal_query,  1024, 128,    1, 128,    1,      128,     1,
MHA_head_3_cal_key,    1024, 128,    1, 128,    1,      128,     1,
MHA_head_3_cal_value,  1024, 128,    1, 128,    1,      128,     1,
MHA_head_3_self_att1,  1024, 128,    1, 128,    1,      128,     1,
MHA_head_3_self_att2,  1024, 128,    1, 128,    1,      128,     1,
MHA_head_4_cal_query,  1024, 128,    1, 128,    1,      128,     1,
MHA_head_4_cal_key,    1024, 128,    1, 128,    1,      128,     1,
MHA_head_4_cal_value,  1024, 128,    1, 128,    1,      128,     1,
MHA_head_4_self_att1,  1024, 128,    1, 128,    1,      128,     1,
MHA_head_4_self_att2,  1024, 128,    1, 128,    1,      128,     1,
MHA_concat_final_op,   1024, 128,    1, 128,    1,      128,     1,
FFN1_input,            1024, 128,    1, 128,    1,      512,     1,
FFN1_inter,            1024, 512,    1, 512,    1,      128,     1,
FFN2_input,            1024, 128,    1, 128,    1,      512,     1,
FFN2_inter,            1024, 512,    1, 512,    1,      128,     1,
FFN3_input,            1024, 128,    1, 128,    1,      512,     1,
FFN3_inter,            1024, 512,    1, 512,    1,      128,     1,
FFN4_input,            1024, 128,    1, 128,    1,      512,     1,
FFN4_inter,            1024, 512,    1, 512,    1,      128,     1,
Linear2,               1024, 128,    1, 128,    1,      512,     1,

Linear1,               1024, 512,    1, 512,    1,      128,     1,
MHA_head_1_cal_query,  1024, 128,    1, 128,    1,      128,     1,
MHA_head_1_cal_key,    1024, 128,    1, 128,    1,      128,     1,
MHA_head_1_cal_value,  1024, 128,    1, 128,    1,      128,     1,
MHA_head_1_self_att1,  1024, 128,    1, 128,    1,      128,     1,
MHA_head_1_self_att2,  1024, 128,    1, 128,    1,      128,     1,
MHA_head_2_cal_query,  1024, 128,    1, 128,    1,      128,     1,
MHA_head_2_cal_key,    1024, 128,    1, 128,    1,      128,     1,
MHA_head_2_cal_value,  1024, 128,    1, 128,    1,      128,     1,
MHA_head_2_self_att1,  1024, 128,    1, 128,    1,      128,     1,
MHA_head_2_self_att2,  1024, 128,    1, 128,    1,      128,     1,
MHA_head_3_cal_query,  1024, 128,    1, 128,    1,      128,     1,
MHA_head_3_cal_key,    1024, 128,    1, 128,    1,      128,     1,
MHA_head_3_cal_value,  1024, 128,    1, 128,    1,      128,     1,
MHA_head_3_self_att1,  1024, 128,    1, 128,    1,      128,     1,
MHA_head_3_self_att2,  1024, 128,    1, 128,    1,      128,     1,
MHA_head_4_cal_query,  1024, 128,    1, 128,    1,      128,     1,
MHA_head_4_cal_key,    1024, 128,    1, 128,    1,      128,     1,
MHA_head_4_cal_value,  1024, 128,    1, 128,    1,      128,     1,
MHA_head_4_self_att1,  1024, 128,    1, 128,    1,      128,     1,
MHA_head_4_self_att2,  1024, 128,    1, 128,    1,      128,     1,
MHA_concat_final_op,   1024, 128,    1, 128,    1,      128,     1,
FFN1_input,            1024, 128,    1, 128,    1,      512,     1,
FFN1_inter,            1024, 512,    1, 512,    1,      128,     1,
FFN2_input,            1024, 128,    1, 128,    1,      512,     1,
FFN2_inter,            1024, 512,    1, 512,    1,      128,     1,
FFN3_input,            1024, 128,    1, 128,    1,      512,     1,
FFN3_inter,            1024, 512,    1, 512,    1,      128,     1,
FFN4_input,            1024, 128,    1, 128,    1,      512,     1,
FFN4_inter,            1024, 512,    1, 512,    1,      128,     1,
Linear2,               1024, 128,    1, 128,    1,      512,     1,

Linear1,               1024, 512,    1, 512,    1,      128,     1,
MHA_head_1_cal_query,  1024, 128,    1, 128,    1,      128,     1,
MHA_head_1_cal_key,    1024, 128,    1, 128,    1,      128,     1,
MHA_head_1_cal_value,  1024, 128,    1, 128,    1,      128,     1,
MHA_head_1_self_att1,  1024, 128,    1, 128,    1,      128,     1,
MHA_head_1_self_att2,  1024, 128,    1, 128,    1,      128,     1,
MHA_head_2_cal_query,  1024, 128,    1, 128,    1,      128,     1,
MHA_head_2_cal_key,    1024, 128,    1, 128,    1,      128,     1,
MHA_head_2_cal_value,  1024, 128,    1, 128,    1,      128,     1,
MHA_head_2_self_att1,  1024, 128,    1, 128,    1,      128,     1,
MHA_head_2_self_att2,  1024, 128,    1, 128,    1,      128,     1,
MHA_head_3_cal_query,  1024, 128,    1, 128,    1,      128,     1,
MHA_head_3_cal_key,    1024, 128,    1, 128,    1,      128,     1,
MHA_head_3_cal_value,  1024, 128,    1, 128,    1,      128,     1,
MHA_head_3_self_att1,  1024, 128,    1, 128,    1,      128,     1,
MHA_head_3_self_att2,  1024, 128,    1, 128,    1,      128,     1,
MHA_head_4_cal_query,  1024, 128,    1, 128,    1,      128,     1,
MHA_head_4_cal_key,    1024, 128,    1, 128,    1,      128,     1,
MHA_head_4_cal_value,  1024, 128,    1, 128,    1,      128,     1,
MHA_head_4_self_att1,  1024, 128,    1, 128,    1,      128,     1,
MHA_head_4_self_att2,  1024, 128,    1, 128,    1,      128,     1,
MHA_concat_final_op,   1024, 128,    1, 128,    1,      128,     1,
FFN1_input,            1024, 128,    1, 128,    1,      512,     1,
FFN1_inter,            1024, 512,    1, 512,    1,      128,     1,
FFN2_input,            1024, 128,    1, 128,    1,      512,     1,
FFN2_inter,            1024, 512,    1, 512,    1,      128,     1,
FFN3_input,            1024, 128,    1, 128,    1,      512,     1,
FFN3_inter,            1024, 512,    1, 512,    1,      128,     1,
FFN4_input,            1024, 128,    1, 128,    1,      512,     1,
FFN4_inter,            1024, 512,    1, 512,    1,      128,     1,
Linear2,               1024, 128,    1, 128,    1,      512,     1,

Linear1,               1024, 512,    1, 512,    1,      128,     1,
MHA_head_1_cal_query,  1024, 128,    1, 128,    1,      128,     1,
MHA_head_1_cal_key,    1024, 128,    1, 128,    1,      128,     1,
MHA_head_1_cal_value,  1024, 128,    1, 128,    1,      128,     1,
MHA_head_1_self_att1,  1024, 128,    1, 128,    1,      128,     1,
MHA_head_1_self_att2,  1024, 128,    1, 128,    1,      128,     1,
MHA_head_2_cal_query,  1024, 128,    1, 128,    1,      128,     1,
MHA_head_2_cal_key,    1024, 128,    1, 128,    1,      128,     1,
MHA_head_2_cal_value,  1024, 128,    1, 128,    1,      128,     1,
MHA_head_2_self_att1,  1024, 128,    1, 128,    1,      128,     1,
MHA_head_2_self_att2,  1024, 128,    1, 128,    1,      128,     1,
MHA_head_3_cal_query,  1024, 128,    1, 128,    1,      128,     1,
MHA_head_3_cal_key,    1024, 128,    1, 128,    1,      128,     1,
MHA_head_3_cal_value,  1024, 128,    1, 128,    1,      128,     1,
MHA_head_3_self_att1,  1024, 128,    1, 128,    1,      128,     1,
MHA_head_3_self_att2,  1024, 128,    1, 128,    1,      128,     1,
MHA_head_4_cal_query,  1024, 128,    1, 128,    1,      128,     1,
MHA_head_4_cal_key,    1024, 128,    1, 128,    1,      128,     1,
MHA_head_4_cal_value,  1024, 128,    1, 128,    1,      128,     1,
MHA_head_4_self_att1,  1024, 128,    1, 128,    1,      128,     1,
MHA_head_4_self_att2,  1024, 128,    1, 128,    1,      128,     1,
MHA_concat_final_op,   1024, 128,    1, 128,    1,      128,     1,
FFN1_input,            1024, 128,    1, 128,    1,      512,     1,
FFN1_inter,            1024, 512,    1, 512,    1,      128,     1,
FFN2_input,            1024, 128,    1, 128,    1,      512,     1,
FFN2_inter,            1024, 512,    1, 512,    1,      128,     1,
FFN3_input,            1024, 128,    1, 128,    1,      512,     1,
FFN3_inter,            1024, 512,    1, 512,    1,      128,     1,
FFN4_input,            1024, 128,    1, 128,    1,      512,     1,
FFN4_inter,            1024, 512,    1, 512,    1,      128,     1,
Linear2,               1024, 128,    1, 128,    1,      512,     1,

Linear1,               1024, 512,    1, 512,    1,      128,     1,
MHA_head_1_cal_query,  1024, 128,    1, 128,    1,      128,     1,
MHA_head_1_cal_key,    1024, 128,    1, 128,    1,      128,     1,
MHA_head_1_cal_value,  1024, 128,    1, 128,    1,      128,     1,
MHA_head_1_self_att1,  1024, 128,    1, 128,    1,      128,     1,
MHA_head_1_self_att2,  1024, 128,    1, 128,    1,      128,     1,
MHA_head_2_cal_query,  1024, 128,    1, 128,    1,      128,     1,
MHA_head_2_cal_key,    1024, 128,    1, 128,    1,      128,     1,
MHA_head_2_cal_value,  1024, 128,    1, 128,    1,      128,     1,
MHA_head_2_self_att1,  1024, 128,    1, 128,    1,      128,     1,
MHA_head_2_self_att2,  1024, 128,    1, 128,    1,      128,     1,
MHA_head_3_cal_query,  1024, 128,    1, 128,    1,      128,     1,
MHA_head_3_cal_key,    1024, 128,    1, 128,    1,      128,     1,
MHA_head_3_cal_value,  1024, 128,    1, 128,    1,      128,     1,
MHA_head_3_self_att1,  1024, 128,    1, 128,    1,      128,     1,
MHA_head_3_self_att2,  1024, 128,    1, 128,    1,      128,     1,
MHA_head_4_cal_query,  1024, 128,    1, 128,    1,      128,     1,
MHA_head_4_cal_key,    1024, 128,    1, 128,    1,      128,     1,
MHA_head_4_cal_value,  1024, 128,    1, 128,    1,      128,     1,
MHA_head_4_self_att1,  1024, 128,    1, 128,    1,      128,     1,
MHA_head_4_self_att2,  1024, 128,    1, 128,    1,      128,     1,
MHA_concat_final_op,   1024, 128,    1, 128,    1,      128,     1,
FFN1_input,            1024, 128,    1, 128,    1,      512,     1,
FFN1_inter,            1024, 512,    1, 512,    1,      128,     1,
FFN2_input,            1024, 128,    1, 128,    1,      512,     1,
FFN2_inter,            1024, 512,    1, 512,    1,      128,     1,
FFN3_input,            1024, 128,    1, 128,    1,      512,     1,
FFN3_inter,            1024, 512,    1, 512,    1,      128,     1,
FFN4_input,            1024, 128,    1, 128,    1,      512,     1,
FFN4_inter,            1024, 512,    1, 512,    1,      128,     1,
Linear2,               1024, 128,    1, 128,    1,      512,     1,

Linear1,               1024, 512,    1, 512,    1,      128,     1,
MHA_head_1_cal_query,  1024, 128,    1, 128,    1,      128,     1,
MHA_head_1_cal_key,    1024, 128,    1, 128,    1,      128,     1,
MHA_head_1_cal_value,  1024, 128,    1, 128,    1,      128,     1,
MHA_head_1_self_att1,  1024, 128,    1, 128,    1,      128,     1,
MHA_head_1_self_att2,  1024, 128,    1, 128,    1,      128,     1,
MHA_head_2_cal_query,  1024, 128,    1, 128,    1,      128,     1,
MHA_head_2_cal_key,    1024, 128,    1, 128,    1,      128,     1,
MHA_head_2_cal_value,  1024, 128,    1, 128,    1,      128,     1,
MHA_head_2_self_att1,  1024, 128,    1, 128,    1,      128,     1,
MHA_head_2_self_att2,  1024, 128,    1, 128,    1,      128,     1,
MHA_head_3_cal_query,  1024, 128,    1, 128,    1,      128,     1,
MHA_head_3_cal_key,    1024, 128,    1, 128,    1,      128,     1,
MHA_head_3_cal_value,  1024, 128,    1, 128,    1,      128,     1,
MHA_head_3_self_att1,  1024, 128,    1, 128,    1,      128,     1,
MHA_head_3_self_att2,  1024, 128,    1, 128,    1,      128,     1,
MHA_head_4_cal_query,  1024, 128,    1, 128,    1,      128,     1,
MHA_head_4_cal_key,    1024, 128,    1, 128,    1,      128,     1,
MHA_head_4_cal_value,  1024, 128,    1, 128,    1,      128,     1,
MHA_head_4_self_att1,  1024, 128,    1, 128,    1,      128,     1,
MHA_head_4_self_att2,  1024, 128,    1, 128,    1,      128,     1,
MHA_concat_final_op,   1024, 128,    1, 128,    1,      128,     1,
FFN1_input,            1024, 128,    1, 128,    1,      512,     1,
FFN1_inter,            1024, 512,    1, 512,    1,      128,     1,
FFN2_input,            1024, 128,    1, 128,    1,      512,     1,
FFN2_inter,            1024, 512,    1, 512,    1,      128,     1,
FFN3_input,            1024, 128,    1, 128,    1,      512,     1,
FFN3_inter,            1024, 512,    1, 512,    1,      128,     1,
FFN4_input,            1024, 128,    1, 128,    1,      512,     1,
FFN4_inter,            1024, 512,    1, 512,    1,      128,     1,
Linear2,               1024, 128,    1, 128,    1,      512,     1,

Linear1,               1024, 512,    1, 512,    1,      128,     1,
MHA_head_1_cal_query,  1024, 128,    1, 128,    1,      128,     1,
MHA_head_1_cal_key,    1024, 128,    1, 128,    1,      128,     1,
MHA_head_1_cal_value,  1024, 128,    1, 128,    1,      128,     1,
MHA_head_1_self_att1,  1024, 128,    1, 128,    1,      128,     1,
MHA_head_1_self_att2,  1024, 128,    1, 128,    1,      128,     1,
MHA_head_2_cal_query,  1024, 128,    1, 128,    1,      128,     1,
MHA_head_2_cal_key,    1024, 128,    1, 128,    1,      128,     1,
MHA_head_2_cal_value,  1024, 128,    1, 128,    1,      128,     1,
MHA_head_2_self_att1,  1024, 128,    1, 128,    1,      128,     1,
MHA_head_2_self_att2,  1024, 128,    1, 128,    1,      128,     1,
MHA_head_3_cal_query,  1024, 128,    1, 128,    1,      128,     1,
MHA_head_3_cal_key,    1024, 128,    1, 128,    1,      128,     1,
MHA_head_3_cal_value,  1024, 128,    1, 128,    1,      128,     1,
MHA_head_3_self_att1,  1024, 128,    1, 128,    1,      128,     1,
MHA_head_3_self_att2,  1024, 128,    1, 128,    1,      128,     1,
MHA_head_4_cal_query,  1024, 128,    1, 128,    1,      128,     1,
MHA_head_4_cal_key,    1024, 128,    1, 128,    1,      128,     1,
MHA_head_4_cal_value,  1024, 128,    1, 128,    1,      128,     1,
MHA_head_4_self_att1,  1024, 128,    1, 128,    1,      128,     1,
MHA_head_4_self_att2,  1024, 128,    1, 128,    1,      128,     1,
MHA_concat_final_op,   1024, 128,    1, 128,    1,      128,     1,
FFN1_input,            1024, 128,    1, 128,    1,      512,     1,
FFN1_inter,            1024, 512,    1, 512,    1,      128,     1,
FFN2_input,            1024, 128,    1, 128,    1,      512,     1,
FFN2_inter,            1024, 512,    1, 512,    1,      128,     1,
FFN3_input,            1024, 128,    1, 128,    1,      512,     1,
FFN3_inter,            1024, 512,    1, 512,    1,      128,     1,
FFN4_input,            1024, 128,    1, 128,    1,      512,     1,
FFN4_inter,            1024, 512,    1, 512,    1,      128,     1,
Linear2,               1024, 128,    1, 128,    1,      512,     1,

Linear1,               1024, 512,    1, 512,    1,      128,     1,
MHA_head_1_cal_query,  1024, 128,    1, 128,    1,      128,     1,
MHA_head_1_cal_key,    1024, 128,    1, 128,    1,      128,     1,
MHA_head_1_cal_value,  1024, 128,    1, 128,    1,      128,     1,
MHA_head_1_self_att1,  1024, 128,    1, 128,    1,      128,     1,
MHA_head_1_self_att2,  1024, 128,    1, 128,    1,      128,     1,
MHA_head_2_cal_query,  1024, 128,    1, 128,    1,      128,     1,
MHA_head_2_cal_key,    1024, 128,    1, 128,    1,      128,     1,
MHA_head_2_cal_value,  1024, 128,    1, 128,    1,      128,     1,
MHA_head_2_self_att1,  1024, 128,    1, 128,    1,      128,     1,
MHA_head_2_self_att2,  1024, 128,    1, 128,    1,      128,     1,
MHA_head_3_cal_query,  1024, 128,    1, 128,    1,      128,     1,
MHA_head_3_cal_key,    1024, 128,    1, 128,    1,      128,     1,
MHA_head_3_cal_value,  1024, 128,    1, 128,    1,      128,     1,
MHA_head_3_self_att1,  1024, 128,    1, 128,    1,      128,     1,
MHA_head_3_self_att2,  1024, 128,    1, 128,    1,      128,     1,
MHA_head_4_cal_query,  1024, 128,    1, 128,    1,      128,     1,
MHA_head_4_cal_key,    1024, 128,    1, 128,    1,      128,     1,
MHA_head_4_cal_value,  1024, 128,    1, 128,    1,      128,     1,
MHA_head_4_self_att1,  1024, 128,    1, 128,    1,      128,     1,
MHA_head_4_self_att2,  1024, 128,    1, 128,    1,      128,     1,
MHA_concat_final_op,   1024, 128,    1, 128,    1,      128,     1,
FFN1_input,            1024, 128,    1, 128,    1,      512,     1,
FFN1_inter,            1024, 512,    1, 512,    1,      128,     1,
FFN2_input,            1024, 128,    1, 128,    1,      512,     1,
FFN2_inter,            1024, 512,    1, 512,    1,      128,     1,
FFN3_input,            1024, 128,    1, 128,    1,      512,     1,
FFN3_inter,            1024, 512,    1, 512,    1,      128,     1,
FFN4_input,            1024, 128,    1, 128,    1,      512,     1,
FFN4_inter,            1024, 512,    1, 512,    1,      128,     1,
Linear2,               1024, 128,    1, 128,    1,      512,     1,

Linear1,               1024, 512,    1, 512,    1,      128,     1,
MHA_head_1_cal_query,  1024, 128,    1, 128,    1,      128,     1,
MHA_head_1_cal_key,    1024, 128,    1, 128,    1,      128,     1,
MHA_head_1_cal_value,  1024, 128,    1, 128,    1,      128,     1,
MHA_head_1_self_att1,  1024, 128,    1, 128,    1,      128,     1,
MHA_head_1_self_att2,  1024, 128,    1, 128,    1,      128,     1,
MHA_head_2_cal_query,  1024, 128,    1, 128,    1,      128,     1,
MHA_head_2_cal_key,    1024, 128,    1, 128,    1,      128,     1,
MHA_head_2_cal_value,  1024, 128,    1, 128,    1,      128,     1,
MHA_head_2_self_att1,  1024, 128,    1, 128,    1,      128,     1,
MHA_head_2_self_att2,  1024, 128,    1, 128,    1,      128,     1,
MHA_head_3_cal_query,  1024, 128,    1, 128,    1,      128,     1,
MHA_head_3_cal_key,    1024, 128,    1, 128,    1,      128,     1,
MHA_head_3_cal_value,  1024, 128,    1, 128,    1,      128,     1,
MHA_head_3_self_att1,  1024, 128,    1, 128,    1,      128,     1,
MHA_head_3_self_att2,  1024, 128,    1, 128,    1,      128,     1,
MHA_head_4_cal_query,  1024, 128,    1, 128,    1,      128,     1,
MHA_head_4_cal_key,    1024, 128,    1, 128,    1,      128,     1,
MHA_head_4_cal_value,  1024, 128,    1, 128,    1,      128,     1,
MHA_head_4_self_att1,  1024, 128,    1, 128,    1,      128,     1,
MHA_head_4_self_att2,  1024, 128,    1, 128,    1,      128,     1,
MHA_concat_final_op,   1024, 128,    1, 128,    1,      128,     1,
FFN1_input,            1024, 128,    1, 128,    1,      512,     1,
FFN1_inter,            1024, 512,    1, 512,    1,      128,     1,
FFN2_input,            1024, 128,    1, 128,    1,      512,     1,
FFN2_inter,            1024, 512,    1, 512,    1,      128,     1,
FFN3_input,            1024, 128,    1, 128,    1,      512,     1,
FFN3_inter,            1024, 512,    1, 512,    1,      128,     1,
FFN4_input,            1024, 128,    1, 128,    1,      512,     1,
FFN4_inter,            1024, 512,    1, 512,    1,      128,     1,
Linear2,               1024, 128,    1, 128,    1,      512,     1,

Linear1,               1024, 512,    1, 512,    1,      128,     1,
MHA_head_1_cal_query,  1024, 128,    1, 128,    1,      128,     1,
MHA_head_1_cal_key,    1024, 128,    1, 128,    1,      128,     1,
MHA_head_1_cal_value,  1024, 128,    1, 128,    1,      128,     1,
MHA_head_1_self_att1,  1024, 128,    1, 128,    1,      128,     1,
MHA_head_1_self_att2,  1024, 128,    1, 128,    1,      128,     1,
MHA_head_2_cal_query,  1024, 128,    1, 128,    1,      128,     1,
MHA_head_2_cal_key,    1024, 128,    1, 128,    1,      128,     1,
MHA_head_2_cal_value,  1024, 128,    1, 128,    1,      128,     1,
MHA_head_2_self_att1,  1024, 128,    1, 128,    1,      128,     1,
MHA_head_2_self_att2,  1024, 128,    1, 128,    1,      128,     1,
MHA_head_3_cal_query,  1024, 128,    1, 128,    1,      128,     1,
MHA_head_3_cal_key,    1024, 128,    1, 128,    1,      128,     1,
MHA_head_3_cal_value,  1024, 128,    1, 128,    1,      128,     1,
MHA_head_3_self_att1,  1024, 128,    1, 128,    1,      128,     1,
MHA_head_3_self_att2,  1024, 128,    1, 128,    1,      128,     1,
MHA_head_4_cal_query,  1024, 128,    1, 128,    1,      128,     1,
MHA_head_4_cal_key,    1024, 128,    1, 128,    1,      128,     1,
MHA_head_4_cal_value,  1024, 128,    1, 128,    1,      128,     1,
MHA_head_4_self_att1,  1024, 128,    1, 128,    1,      128,     1,
MHA_head_4_self_att2,  1024, 128,    1, 128,    1,      128,     1,
MHA_concat_final_op,   1024, 128,    1, 128,    1,      128,     1,
FFN1_input,            1024, 128,    1, 128,    1,      512,     1,
FFN1_inter,            1024, 512,    1, 512,    1,      128,     1,
FFN2_input,            1024, 128,    1, 128,    1,      512,     1,
FFN2_inter,            1024, 512,    1, 512,    1,      128,     1,
FFN3_input,            1024, 128,    1, 128,    1,      512,     1,
FFN3_inter,            1024, 512,    1, 512,    1,      128,     1,
FFN4_input,            1024, 128,    1, 128,    1,      512,     1,
FFN4_inter,            1024, 512,    1, 512,    1,      128,     1,
Linear2,               1024, 128,    1, 128,    1,      512,     1,

Linear1,               1024, 512,    1, 512,    1,      128,     1,
MHA_head_1_cal_query,  1024, 128,    1, 128,    1,      128,     1,
MHA_head_1_cal_key,    1024, 128,    1, 128,    1,      128,     1,
MHA_head_1_cal_value,  1024, 128,    1, 128,    1,      128,     1,
MHA_head_1_self_att1,  1024, 128,    1, 128,    1,      128,     1,
MHA_head_1_self_att2,  1024, 128,    1, 128,    1,      128,     1,
MHA_head_2_cal_query,  1024, 128,    1, 128,    1,      128,     1,
MHA_head_2_cal_key,    1024, 128,    1, 128,    1,      128,     1,
MHA_head_2_cal_value,  1024, 128,    1, 128,    1,      128,     1,
MHA_head_2_self_att1,  1024, 128,    1, 128,    1,      128,     1,
MHA_head_2_self_att2,  1024, 128,    1, 128,    1,      128,     1,
MHA_head_3_cal_query,  1024, 128,    1, 128,    1,      128,     1,
MHA_head_3_cal_key,    1024, 128,    1, 128,    1,      128,     1,
MHA_head_3_cal_value,  1024, 128,    1, 128,    1,      128,     1,
MHA_head_3_self_att1,  1024, 128,    1, 128,    1,      128,     1,
MHA_head_3_self_att2,  1024, 128,    1, 128,    1,      128,     1,
MHA_head_4_cal_query,  1024, 128,    1, 128,    1,      128,     1,
MHA_head_4_cal_key,    1024, 128,    1, 128,    1,      128,     1,
MHA_head_4_cal_value,  1024, 128,    1, 128,    1,      128,     1,
MHA_head_4_self_att1,  1024, 128,    1, 128,    1,      128,     1,
MHA_head_4_self_att2,  1024, 128,    1, 128,    1,      128,     1,
MHA_concat_final_op,   1024, 128,    1, 128,    1,      128,     1,
FFN1_input,            1024, 128,    1, 128,    1,      512,     1,
FFN1_inter,            1024, 512,    1, 512,    1,      128,     1,
FFN2_input,            1024, 128,    1, 128,    1,      512,     1,
FFN2_inter,            1024, 512,    1, 512,    1,      128,     1,
FFN3_input,            1024, 128,    1, 128,    1,      512,     1,
FFN3_inter,            1024, 512,    1, 512,    1,      128,     1,
FFN4_input,            1024, 128,    1, 128,    1,      512,     1,
FFN4_inter,            1024, 512,    1, 512,    1,      128,     1,
Linear2,               1024, 128,    1, 128,    1,      512,     1,
