Layer name, IFMAP Height, IFMAP Width, Filter Height, Filter Width, Channels, Num Filter, Strides,

Linear1,               16, 512,    1, 512,    1,      128,     1,
MHA_head_1_cal_query,  16, 128,    1, 128,    1,      128,     1,
MHA_head_1_cal_key,    16, 128,    1, 128,    1,      128,     1,
MHA_head_1_cal_value,  16, 128,    1, 128,    1,      128,     1,
MHA_head_1_self_att1,  16, 128,    1, 128,    1,      128,     1,
MHA_head_1_self_att2,  16, 128,    1, 128,    1,      128,     1,
MHA_head_2_cal_query,  16, 128,    1, 128,    1,      128,     1,
MHA_head_2_cal_key,    16, 128,    1, 128,    1,      128,     1,
MHA_head_2_cal_value,  16, 128,    1, 128,    1,      128,     1,
MHA_head_2_self_att1,  16, 128,    1, 128,    1,      128,     1,
MHA_head_2_self_att2,  16, 128,    1, 128,    1,      128,     1,
MHA_head_3_cal_query,  16, 128,    1, 128,    1,      128,     1,
MHA_head_3_cal_key,    16, 128,    1, 128,    1,      128,     1,
MHA_head_3_cal_value,  16, 128,    1, 128,    1,      128,     1,
MHA_head_3_self_att1,  16, 128,    1, 128,    1,      128,     1,
MHA_head_3_self_att2,  16, 128,    1, 128,    1,      128,     1,
MHA_head_4_cal_query,  16, 128,    1, 128,    1,      128,     1,
MHA_head_4_cal_key,    16, 128,    1, 128,    1,      128,     1,
MHA_head_4_cal_value,  16, 128,    1, 128,    1,      128,     1,
MHA_head_4_self_att1,  16, 128,    1, 128,    1,      128,     1,
MHA_head_4_self_att2,  16, 128,    1, 128,    1,      128,     1,
MHA_concat_final_op,   16, 128,    1, 128,    1,      128,     1,
FFN1_input,            16, 128,    1, 128,    1,      512,     1,
FFN1_inter,            16, 512,    1, 512,    1,      128,     1,
FFN2_input,            16, 128,    1, 128,    1,      512,     1,
FFN2_inter,            16, 512,    1, 512,    1,      128,     1,
FFN3_input,            16, 128,    1, 128,    1,      512,     1,
FFN3_inter,            16, 512,    1, 512,    1,      128,     1,
FFN4_input,            16, 128,    1, 128,    1,      512,     1,
FFN4_inter,            16, 512,    1, 512,    1,      128,     1,
Linear2,               16, 128,    1, 128,    1,      512,     1,

Linear1,               16, 512,    1, 512,    1,      128,     1,
MHA_head_1_cal_query,  16, 128,    1, 128,    1,      128,     1,
MHA_head_1_cal_key,    16, 128,    1, 128,    1,      128,     1,
MHA_head_1_cal_value,  16, 128,    1, 128,    1,      128,     1,
MHA_head_1_self_att1,  16, 128,    1, 128,    1,      128,     1,
MHA_head_1_self_att2,  16, 128,    1, 128,    1,      128,     1,
MHA_head_2_cal_query,  16, 128,    1, 128,    1,      128,     1,
MHA_head_2_cal_key,    16, 128,    1, 128,    1,      128,     1,
MHA_head_2_cal_value,  16, 128,    1, 128,    1,      128,     1,
MHA_head_2_self_att1,  16, 128,    1, 128,    1,      128,     1,
MHA_head_2_self_att2,  16, 128,    1, 128,    1,      128,     1,
MHA_head_3_cal_query,  16, 128,    1, 128,    1,      128,     1,
MHA_head_3_cal_key,    16, 128,    1, 128,    1,      128,     1,
MHA_head_3_cal_value,  16, 128,    1, 128,    1,      128,     1,
MHA_head_3_self_att1,  16, 128,    1, 128,    1,      128,     1,
MHA_head_3_self_att2,  16, 128,    1, 128,    1,      128,     1,
MHA_head_4_cal_query,  16, 128,    1, 128,    1,      128,     1,
MHA_head_4_cal_key,    16, 128,    1, 128,    1,      128,     1,
MHA_head_4_cal_value,  16, 128,    1, 128,    1,      128,     1,
MHA_head_4_self_att1,  16, 128,    1, 128,    1,      128,     1,
MHA_head_4_self_att2,  16, 128,    1, 128,    1,      128,     1,
MHA_concat_final_op,   16, 128,    1, 128,    1,      128,     1,
FFN1_input,            16, 128,    1, 128,    1,      512,     1,
FFN1_inter,            16, 512,    1, 512,    1,      128,     1,
FFN2_input,            16, 128,    1, 128,    1,      512,     1,
FFN2_inter,            16, 512,    1, 512,    1,      128,     1,
FFN3_input,            16, 128,    1, 128,    1,      512,     1,
FFN3_inter,            16, 512,    1, 512,    1,      128,     1,
FFN4_input,            16, 128,    1, 128,    1,      512,     1,
FFN4_inter,            16, 512,    1, 512,    1,      128,     1,
Linear2,               16, 128,    1, 128,    1,      512,     1,

Linear1,               16, 512,    1, 512,    1,      128,     1,
MHA_head_1_cal_query,  16, 128,    1, 128,    1,      128,     1,
MHA_head_1_cal_key,    16, 128,    1, 128,    1,      128,     1,
MHA_head_1_cal_value,  16, 128,    1, 128,    1,      128,     1,
MHA_head_1_self_att1,  16, 128,    1, 128,    1,      128,     1,
MHA_head_1_self_att2,  16, 128,    1, 128,    1,      128,     1,
MHA_head_2_cal_query,  16, 128,    1, 128,    1,      128,     1,
MHA_head_2_cal_key,    16, 128,    1, 128,    1,      128,     1,
MHA_head_2_cal_value,  16, 128,    1, 128,    1,      128,     1,
MHA_head_2_self_att1,  16, 128,    1, 128,    1,      128,     1,
MHA_head_2_self_att2,  16, 128,    1, 128,    1,      128,     1,
MHA_head_3_cal_query,  16, 128,    1, 128,    1,      128,     1,
MHA_head_3_cal_key,    16, 128,    1, 128,    1,      128,     1,
MHA_head_3_cal_value,  16, 128,    1, 128,    1,      128,     1,
MHA_head_3_self_att1,  16, 128,    1, 128,    1,      128,     1,
MHA_head_3_self_att2,  16, 128,    1, 128,    1,      128,     1,
MHA_head_4_cal_query,  16, 128,    1, 128,    1,      128,     1,
MHA_head_4_cal_key,    16, 128,    1, 128,    1,      128,     1,
MHA_head_4_cal_value,  16, 128,    1, 128,    1,      128,     1,
MHA_head_4_self_att1,  16, 128,    1, 128,    1,      128,     1,
MHA_head_4_self_att2,  16, 128,    1, 128,    1,      128,     1,
MHA_concat_final_op,   16, 128,    1, 128,    1,      128,     1,
FFN1_input,            16, 128,    1, 128,    1,      512,     1,
FFN1_inter,            16, 512,    1, 512,    1,      128,     1,
FFN2_input,            16, 128,    1, 128,    1,      512,     1,
FFN2_inter,            16, 512,    1, 512,    1,      128,     1,
FFN3_input,            16, 128,    1, 128,    1,      512,     1,
FFN3_inter,            16, 512,    1, 512,    1,      128,     1,
FFN4_input,            16, 128,    1, 128,    1,      512,     1,
FFN4_inter,            16, 512,    1, 512,    1,      128,     1,
Linear2,               16, 128,    1, 128,    1,      512,     1,

Linear1,               16, 512,    1, 512,    1,      128,     1,
MHA_head_1_cal_query,  16, 128,    1, 128,    1,      128,     1,
MHA_head_1_cal_key,    16, 128,    1, 128,    1,      128,     1,
MHA_head_1_cal_value,  16, 128,    1, 128,    1,      128,     1,
MHA_head_1_self_att1,  16, 128,    1, 128,    1,      128,     1,
MHA_head_1_self_att2,  16, 128,    1, 128,    1,      128,     1,
MHA_head_2_cal_query,  16, 128,    1, 128,    1,      128,     1,
MHA_head_2_cal_key,    16, 128,    1, 128,    1,      128,     1,
MHA_head_2_cal_value,  16, 128,    1, 128,    1,      128,     1,
MHA_head_2_self_att1,  16, 128,    1, 128,    1,      128,     1,
MHA_head_2_self_att2,  16, 128,    1, 128,    1,      128,     1,
MHA_head_3_cal_query,  16, 128,    1, 128,    1,      128,     1,
MHA_head_3_cal_key,    16, 128,    1, 128,    1,      128,     1,
MHA_head_3_cal_value,  16, 128,    1, 128,    1,      128,     1,
MHA_head_3_self_att1,  16, 128,    1, 128,    1,      128,     1,
MHA_head_3_self_att2,  16, 128,    1, 128,    1,      128,     1,
MHA_head_4_cal_query,  16, 128,    1, 128,    1,      128,     1,
MHA_head_4_cal_key,    16, 128,    1, 128,    1,      128,     1,
MHA_head_4_cal_value,  16, 128,    1, 128,    1,      128,     1,
MHA_head_4_self_att1,  16, 128,    1, 128,    1,      128,     1,
MHA_head_4_self_att2,  16, 128,    1, 128,    1,      128,     1,
MHA_concat_final_op,   16, 128,    1, 128,    1,      128,     1,
FFN1_input,            16, 128,    1, 128,    1,      512,     1,
FFN1_inter,            16, 512,    1, 512,    1,      128,     1,
FFN2_input,            16, 128,    1, 128,    1,      512,     1,
FFN2_inter,            16, 512,    1, 512,    1,      128,     1,
FFN3_input,            16, 128,    1, 128,    1,      512,     1,
FFN3_inter,            16, 512,    1, 512,    1,      128,     1,
FFN4_input,            16, 128,    1, 128,    1,      512,     1,
FFN4_inter,            16, 512,    1, 512,    1,      128,     1,
Linear2,               16, 128,    1, 128,    1,      512,     1,

Linear1,               16, 512,    1, 512,    1,      128,     1,
MHA_head_1_cal_query,  16, 128,    1, 128,    1,      128,     1,
MHA_head_1_cal_key,    16, 128,    1, 128,    1,      128,     1,
MHA_head_1_cal_value,  16, 128,    1, 128,    1,      128,     1,
MHA_head_1_self_att1,  16, 128,    1, 128,    1,      128,     1,
MHA_head_1_self_att2,  16, 128,    1, 128,    1,      128,     1,
MHA_head_2_cal_query,  16, 128,    1, 128,    1,      128,     1,
MHA_head_2_cal_key,    16, 128,    1, 128,    1,      128,     1,
MHA_head_2_cal_value,  16, 128,    1, 128,    1,      128,     1,
MHA_head_2_self_att1,  16, 128,    1, 128,    1,      128,     1,
MHA_head_2_self_att2,  16, 128,    1, 128,    1,      128,     1,
MHA_head_3_cal_query,  16, 128,    1, 128,    1,      128,     1,
MHA_head_3_cal_key,    16, 128,    1, 128,    1,      128,     1,
MHA_head_3_cal_value,  16, 128,    1, 128,    1,      128,     1,
MHA_head_3_self_att1,  16, 128,    1, 128,    1,      128,     1,
MHA_head_3_self_att2,  16, 128,    1, 128,    1,      128,     1,
MHA_head_4_cal_query,  16, 128,    1, 128,    1,      128,     1,
MHA_head_4_cal_key,    16, 128,    1, 128,    1,      128,     1,
MHA_head_4_cal_value,  16, 128,    1, 128,    1,      128,     1,
MHA_head_4_self_att1,  16, 128,    1, 128,    1,      128,     1,
MHA_head_4_self_att2,  16, 128,    1, 128,    1,      128,     1,
MHA_concat_final_op,   16, 128,    1, 128,    1,      128,     1,
FFN1_input,            16, 128,    1, 128,    1,      512,     1,
FFN1_inter,            16, 512,    1, 512,    1,      128,     1,
FFN2_input,            16, 128,    1, 128,    1,      512,     1,
FFN2_inter,            16, 512,    1, 512,    1,      128,     1,
FFN3_input,            16, 128,    1, 128,    1,      512,     1,
FFN3_inter,            16, 512,    1, 512,    1,      128,     1,
FFN4_input,            16, 128,    1, 128,    1,      512,     1,
FFN4_inter,            16, 512,    1, 512,    1,      128,     1,
Linear2,               16, 128,    1, 128,    1,      512,     1,

Linear1,               16, 512,    1, 512,    1,      128,     1,
MHA_head_1_cal_query,  16, 128,    1, 128,    1,      128,     1,
MHA_head_1_cal_key,    16, 128,    1, 128,    1,      128,     1,
MHA_head_1_cal_value,  16, 128,    1, 128,    1,      128,     1,
MHA_head_1_self_att1,  16, 128,    1, 128,    1,      128,     1,
MHA_head_1_self_att2,  16, 128,    1, 128,    1,      128,     1,
MHA_head_2_cal_query,  16, 128,    1, 128,    1,      128,     1,
MHA_head_2_cal_key,    16, 128,    1, 128,    1,      128,     1,
MHA_head_2_cal_value,  16, 128,    1, 128,    1,      128,     1,
MHA_head_2_self_att1,  16, 128,    1, 128,    1,      128,     1,
MHA_head_2_self_att2,  16, 128,    1, 128,    1,      128,     1,
MHA_head_3_cal_query,  16, 128,    1, 128,    1,      128,     1,
MHA_head_3_cal_key,    16, 128,    1, 128,    1,      128,     1,
MHA_head_3_cal_value,  16, 128,    1, 128,    1,      128,     1,
MHA_head_3_self_att1,  16, 128,    1, 128,    1,      128,     1,
MHA_head_3_self_att2,  16, 128,    1, 128,    1,      128,     1,
MHA_head_4_cal_query,  16, 128,    1, 128,    1,      128,     1,
MHA_head_4_cal_key,    16, 128,    1, 128,    1,      128,     1,
MHA_head_4_cal_value,  16, 128,    1, 128,    1,      128,     1,
MHA_head_4_self_att1,  16, 128,    1, 128,    1,      128,     1,
MHA_head_4_self_att2,  16, 128,    1, 128,    1,      128,     1,
MHA_concat_final_op,   16, 128,    1, 128,    1,      128,     1,
FFN1_input,            16, 128,    1, 128,    1,      512,     1,
FFN1_inter,            16, 512,    1, 512,    1,      128,     1,
FFN2_input,            16, 128,    1, 128,    1,      512,     1,
FFN2_inter,            16, 512,    1, 512,    1,      128,     1,
FFN3_input,            16, 128,    1, 128,    1,      512,     1,
FFN3_inter,            16, 512,    1, 512,    1,      128,     1,
FFN4_input,            16, 128,    1, 128,    1,      512,     1,
FFN4_inter,            16, 512,    1, 512,    1,      128,     1,
Linear2,               16, 128,    1, 128,    1,      512,     1,

Linear1,               16, 512,    1, 512,    1,      128,     1,
MHA_head_1_cal_query,  16, 128,    1, 128,    1,      128,     1,
MHA_head_1_cal_key,    16, 128,    1, 128,    1,      128,     1,
MHA_head_1_cal_value,  16, 128,    1, 128,    1,      128,     1,
MHA_head_1_self_att1,  16, 128,    1, 128,    1,      128,     1,
MHA_head_1_self_att2,  16, 128,    1, 128,    1,      128,     1,
MHA_head_2_cal_query,  16, 128,    1, 128,    1,      128,     1,
MHA_head_2_cal_key,    16, 128,    1, 128,    1,      128,     1,
MHA_head_2_cal_value,  16, 128,    1, 128,    1,      128,     1,
MHA_head_2_self_att1,  16, 128,    1, 128,    1,      128,     1,
MHA_head_2_self_att2,  16, 128,    1, 128,    1,      128,     1,
MHA_head_3_cal_query,  16, 128,    1, 128,    1,      128,     1,
MHA_head_3_cal_key,    16, 128,    1, 128,    1,      128,     1,
MHA_head_3_cal_value,  16, 128,    1, 128,    1,      128,     1,
MHA_head_3_self_att1,  16, 128,    1, 128,    1,      128,     1,
MHA_head_3_self_att2,  16, 128,    1, 128,    1,      128,     1,
MHA_head_4_cal_query,  16, 128,    1, 128,    1,      128,     1,
MHA_head_4_cal_key,    16, 128,    1, 128,    1,      128,     1,
MHA_head_4_cal_value,  16, 128,    1, 128,    1,      128,     1,
MHA_head_4_self_att1,  16, 128,    1, 128,    1,      128,     1,
MHA_head_4_self_att2,  16, 128,    1, 128,    1,      128,     1,
MHA_concat_final_op,   16, 128,    1, 128,    1,      128,     1,
FFN1_input,            16, 128,    1, 128,    1,      512,     1,
FFN1_inter,            16, 512,    1, 512,    1,      128,     1,
FFN2_input,            16, 128,    1, 128,    1,      512,     1,
FFN2_inter,            16, 512,    1, 512,    1,      128,     1,
FFN3_input,            16, 128,    1, 128,    1,      512,     1,
FFN3_inter,            16, 512,    1, 512,    1,      128,     1,
FFN4_input,            16, 128,    1, 128,    1,      512,     1,
FFN4_inter,            16, 512,    1, 512,    1,      128,     1,
Linear2,               16, 128,    1, 128,    1,      512,     1,

Linear1,               16, 512,    1, 512,    1,      128,     1,
MHA_head_1_cal_query,  16, 128,    1, 128,    1,      128,     1,
MHA_head_1_cal_key,    16, 128,    1, 128,    1,      128,     1,
MHA_head_1_cal_value,  16, 128,    1, 128,    1,      128,     1,
MHA_head_1_self_att1,  16, 128,    1, 128,    1,      128,     1,
MHA_head_1_self_att2,  16, 128,    1, 128,    1,      128,     1,
MHA_head_2_cal_query,  16, 128,    1, 128,    1,      128,     1,
MHA_head_2_cal_key,    16, 128,    1, 128,    1,      128,     1,
MHA_head_2_cal_value,  16, 128,    1, 128,    1,      128,     1,
MHA_head_2_self_att1,  16, 128,    1, 128,    1,      128,     1,
MHA_head_2_self_att2,  16, 128,    1, 128,    1,      128,     1,
MHA_head_3_cal_query,  16, 128,    1, 128,    1,      128,     1,
MHA_head_3_cal_key,    16, 128,    1, 128,    1,      128,     1,
MHA_head_3_cal_value,  16, 128,    1, 128,    1,      128,     1,
MHA_head_3_self_att1,  16, 128,    1, 128,    1,      128,     1,
MHA_head_3_self_att2,  16, 128,    1, 128,    1,      128,     1,
MHA_head_4_cal_query,  16, 128,    1, 128,    1,      128,     1,
MHA_head_4_cal_key,    16, 128,    1, 128,    1,      128,     1,
MHA_head_4_cal_value,  16, 128,    1, 128,    1,      128,     1,
MHA_head_4_self_att1,  16, 128,    1, 128,    1,      128,     1,
MHA_head_4_self_att2,  16, 128,    1, 128,    1,      128,     1,
MHA_concat_final_op,   16, 128,    1, 128,    1,      128,     1,
FFN1_input,            16, 128,    1, 128,    1,      512,     1,
FFN1_inter,            16, 512,    1, 512,    1,      128,     1,
FFN2_input,            16, 128,    1, 128,    1,      512,     1,
FFN2_inter,            16, 512,    1, 512,    1,      128,     1,
FFN3_input,            16, 128,    1, 128,    1,      512,     1,
FFN3_inter,            16, 512,    1, 512,    1,      128,     1,
FFN4_input,            16, 128,    1, 128,    1,      512,     1,
FFN4_inter,            16, 512,    1, 512,    1,      128,     1,
Linear2,               16, 128,    1, 128,    1,      512,     1,

Linear1,               16, 512,    1, 512,    1,      128,     1,
MHA_head_1_cal_query,  16, 128,    1, 128,    1,      128,     1,
MHA_head_1_cal_key,    16, 128,    1, 128,    1,      128,     1,
MHA_head_1_cal_value,  16, 128,    1, 128,    1,      128,     1,
MHA_head_1_self_att1,  16, 128,    1, 128,    1,      128,     1,
MHA_head_1_self_att2,  16, 128,    1, 128,    1,      128,     1,
MHA_head_2_cal_query,  16, 128,    1, 128,    1,      128,     1,
MHA_head_2_cal_key,    16, 128,    1, 128,    1,      128,     1,
MHA_head_2_cal_value,  16, 128,    1, 128,    1,      128,     1,
MHA_head_2_self_att1,  16, 128,    1, 128,    1,      128,     1,
MHA_head_2_self_att2,  16, 128,    1, 128,    1,      128,     1,
MHA_head_3_cal_query,  16, 128,    1, 128,    1,      128,     1,
MHA_head_3_cal_key,    16, 128,    1, 128,    1,      128,     1,
MHA_head_3_cal_value,  16, 128,    1, 128,    1,      128,     1,
MHA_head_3_self_att1,  16, 128,    1, 128,    1,      128,     1,
MHA_head_3_self_att2,  16, 128,    1, 128,    1,      128,     1,
MHA_head_4_cal_query,  16, 128,    1, 128,    1,      128,     1,
MHA_head_4_cal_key,    16, 128,    1, 128,    1,      128,     1,
MHA_head_4_cal_value,  16, 128,    1, 128,    1,      128,     1,
MHA_head_4_self_att1,  16, 128,    1, 128,    1,      128,     1,
MHA_head_4_self_att2,  16, 128,    1, 128,    1,      128,     1,
MHA_concat_final_op,   16, 128,    1, 128,    1,      128,     1,
FFN1_input,            16, 128,    1, 128,    1,      512,     1,
FFN1_inter,            16, 512,    1, 512,    1,      128,     1,
FFN2_input,            16, 128,    1, 128,    1,      512,     1,
FFN2_inter,            16, 512,    1, 512,    1,      128,     1,
FFN3_input,            16, 128,    1, 128,    1,      512,     1,
FFN3_inter,            16, 512,    1, 512,    1,      128,     1,
FFN4_input,            16, 128,    1, 128,    1,      512,     1,
FFN4_inter,            16, 512,    1, 512,    1,      128,     1,
Linear2,               16, 128,    1, 128,    1,      512,     1,

Linear1,               16, 512,    1, 512,    1,      128,     1,
MHA_head_1_cal_query,  16, 128,    1, 128,    1,      128,     1,
MHA_head_1_cal_key,    16, 128,    1, 128,    1,      128,     1,
MHA_head_1_cal_value,  16, 128,    1, 128,    1,      128,     1,
MHA_head_1_self_att1,  16, 128,    1, 128,    1,      128,     1,
MHA_head_1_self_att2,  16, 128,    1, 128,    1,      128,     1,
MHA_head_2_cal_query,  16, 128,    1, 128,    1,      128,     1,
MHA_head_2_cal_key,    16, 128,    1, 128,    1,      128,     1,
MHA_head_2_cal_value,  16, 128,    1, 128,    1,      128,     1,
MHA_head_2_self_att1,  16, 128,    1, 128,    1,      128,     1,
MHA_head_2_self_att2,  16, 128,    1, 128,    1,      128,     1,
MHA_head_3_cal_query,  16, 128,    1, 128,    1,      128,     1,
MHA_head_3_cal_key,    16, 128,    1, 128,    1,      128,     1,
MHA_head_3_cal_value,  16, 128,    1, 128,    1,      128,     1,
MHA_head_3_self_att1,  16, 128,    1, 128,    1,      128,     1,
MHA_head_3_self_att2,  16, 128,    1, 128,    1,      128,     1,
MHA_head_4_cal_query,  16, 128,    1, 128,    1,      128,     1,
MHA_head_4_cal_key,    16, 128,    1, 128,    1,      128,     1,
MHA_head_4_cal_value,  16, 128,    1, 128,    1,      128,     1,
MHA_head_4_self_att1,  16, 128,    1, 128,    1,      128,     1,
MHA_head_4_self_att2,  16, 128,    1, 128,    1,      128,     1,
MHA_concat_final_op,   16, 128,    1, 128,    1,      128,     1,
FFN1_input,            16, 128,    1, 128,    1,      512,     1,
FFN1_inter,            16, 512,    1, 512,    1,      128,     1,
FFN2_input,            16, 128,    1, 128,    1,      512,     1,
FFN2_inter,            16, 512,    1, 512,    1,      128,     1,
FFN3_input,            16, 128,    1, 128,    1,      512,     1,
FFN3_inter,            16, 512,    1, 512,    1,      128,     1,
FFN4_input,            16, 128,    1, 128,    1,      512,     1,
FFN4_inter,            16, 512,    1, 512,    1,      128,     1,
Linear2,               16, 128,    1, 128,    1,      512,     1,

Linear1,               16, 512,    1, 512,    1,      128,     1,
MHA_head_1_cal_query,  16, 128,    1, 128,    1,      128,     1,
MHA_head_1_cal_key,    16, 128,    1, 128,    1,      128,     1,
MHA_head_1_cal_value,  16, 128,    1, 128,    1,      128,     1,
MHA_head_1_self_att1,  16, 128,    1, 128,    1,      128,     1,
MHA_head_1_self_att2,  16, 128,    1, 128,    1,      128,     1,
MHA_head_2_cal_query,  16, 128,    1, 128,    1,      128,     1,
MHA_head_2_cal_key,    16, 128,    1, 128,    1,      128,     1,
MHA_head_2_cal_value,  16, 128,    1, 128,    1,      128,     1,
MHA_head_2_self_att1,  16, 128,    1, 128,    1,      128,     1,
MHA_head_2_self_att2,  16, 128,    1, 128,    1,      128,     1,
MHA_head_3_cal_query,  16, 128,    1, 128,    1,      128,     1,
MHA_head_3_cal_key,    16, 128,    1, 128,    1,      128,     1,
MHA_head_3_cal_value,  16, 128,    1, 128,    1,      128,     1,
MHA_head_3_self_att1,  16, 128,    1, 128,    1,      128,     1,
MHA_head_3_self_att2,  16, 128,    1, 128,    1,      128,     1,
MHA_head_4_cal_query,  16, 128,    1, 128,    1,      128,     1,
MHA_head_4_cal_key,    16, 128,    1, 128,    1,      128,     1,
MHA_head_4_cal_value,  16, 128,    1, 128,    1,      128,     1,
MHA_head_4_self_att1,  16, 128,    1, 128,    1,      128,     1,
MHA_head_4_self_att2,  16, 128,    1, 128,    1,      128,     1,
MHA_concat_final_op,   16, 128,    1, 128,    1,      128,     1,
FFN1_input,            16, 128,    1, 128,    1,      512,     1,
FFN1_inter,            16, 512,    1, 512,    1,      128,     1,
FFN2_input,            16, 128,    1, 128,    1,      512,     1,
FFN2_inter,            16, 512,    1, 512,    1,      128,     1,
FFN3_input,            16, 128,    1, 128,    1,      512,     1,
FFN3_inter,            16, 512,    1, 512,    1,      128,     1,
FFN4_input,            16, 128,    1, 128,    1,      512,     1,
FFN4_inter,            16, 512,    1, 512,    1,      128,     1,
Linear2,               16, 128,    1, 128,    1,      512,     1,

Linear1,               16, 512,    1, 512,    1,      128,     1,
MHA_head_1_cal_query,  16, 128,    1, 128,    1,      128,     1,
MHA_head_1_cal_key,    16, 128,    1, 128,    1,      128,     1,
MHA_head_1_cal_value,  16, 128,    1, 128,    1,      128,     1,
MHA_head_1_self_att1,  16, 128,    1, 128,    1,      128,     1,
MHA_head_1_self_att2,  16, 128,    1, 128,    1,      128,     1,
MHA_head_2_cal_query,  16, 128,    1, 128,    1,      128,     1,
MHA_head_2_cal_key,    16, 128,    1, 128,    1,      128,     1,
MHA_head_2_cal_value,  16, 128,    1, 128,    1,      128,     1,
MHA_head_2_self_att1,  16, 128,    1, 128,    1,      128,     1,
MHA_head_2_self_att2,  16, 128,    1, 128,    1,      128,     1,
MHA_head_3_cal_query,  16, 128,    1, 128,    1,      128,     1,
MHA_head_3_cal_key,    16, 128,    1, 128,    1,      128,     1,
MHA_head_3_cal_value,  16, 128,    1, 128,    1,      128,     1,
MHA_head_3_self_att1,  16, 128,    1, 128,    1,      128,     1,
MHA_head_3_self_att2,  16, 128,    1, 128,    1,      128,     1,
MHA_head_4_cal_query,  16, 128,    1, 128,    1,      128,     1,
MHA_head_4_cal_key,    16, 128,    1, 128,    1,      128,     1,
MHA_head_4_cal_value,  16, 128,    1, 128,    1,      128,     1,
MHA_head_4_self_att1,  16, 128,    1, 128,    1,      128,     1,
MHA_head_4_self_att2,  16, 128,    1, 128,    1,      128,     1,
MHA_concat_final_op,   16, 128,    1, 128,    1,      128,     1,
FFN1_input,            16, 128,    1, 128,    1,      512,     1,
FFN1_inter,            16, 512,    1, 512,    1,      128,     1,
FFN2_input,            16, 128,    1, 128,    1,      512,     1,
FFN2_inter,            16, 512,    1, 512,    1,      128,     1,
FFN3_input,            16, 128,    1, 128,    1,      512,     1,
FFN3_inter,            16, 512,    1, 512,    1,      128,     1,
FFN4_input,            16, 128,    1, 128,    1,      512,     1,
FFN4_inter,            16, 512,    1, 512,    1,      128,     1,
Linear2,               16, 128,    1, 128,    1,      512,     1,

Linear1,               16, 512,    1, 512,    1,      128,     1,
MHA_head_1_cal_query,  16, 128,    1, 128,    1,      128,     1,
MHA_head_1_cal_key,    16, 128,    1, 128,    1,      128,     1,
MHA_head_1_cal_value,  16, 128,    1, 128,    1,      128,     1,
MHA_head_1_self_att1,  16, 128,    1, 128,    1,      128,     1,
MHA_head_1_self_att2,  16, 128,    1, 128,    1,      128,     1,
MHA_head_2_cal_query,  16, 128,    1, 128,    1,      128,     1,
MHA_head_2_cal_key,    16, 128,    1, 128,    1,      128,     1,
MHA_head_2_cal_value,  16, 128,    1, 128,    1,      128,     1,
MHA_head_2_self_att1,  16, 128,    1, 128,    1,      128,     1,
MHA_head_2_self_att2,  16, 128,    1, 128,    1,      128,     1,
MHA_head_3_cal_query,  16, 128,    1, 128,    1,      128,     1,
MHA_head_3_cal_key,    16, 128,    1, 128,    1,      128,     1,
MHA_head_3_cal_value,  16, 128,    1, 128,    1,      128,     1,
MHA_head_3_self_att1,  16, 128,    1, 128,    1,      128,     1,
MHA_head_3_self_att2,  16, 128,    1, 128,    1,      128,     1,
MHA_head_4_cal_query,  16, 128,    1, 128,    1,      128,     1,
MHA_head_4_cal_key,    16, 128,    1, 128,    1,      128,     1,
MHA_head_4_cal_value,  16, 128,    1, 128,    1,      128,     1,
MHA_head_4_self_att1,  16, 128,    1, 128,    1,      128,     1,
MHA_head_4_self_att2,  16, 128,    1, 128,    1,      128,     1,
MHA_concat_final_op,   16, 128,    1, 128,    1,      128,     1,
FFN1_input,            16, 128,    1, 128,    1,      512,     1,
FFN1_inter,            16, 512,    1, 512,    1,      128,     1,
FFN2_input,            16, 128,    1, 128,    1,      512,     1,
FFN2_inter,            16, 512,    1, 512,    1,      128,     1,
FFN3_input,            16, 128,    1, 128,    1,      512,     1,
FFN3_inter,            16, 512,    1, 512,    1,      128,     1,
FFN4_input,            16, 128,    1, 128,    1,      512,     1,
FFN4_inter,            16, 512,    1, 512,    1,      128,     1,
Linear2,               16, 128,    1, 128,    1,      512,     1,

Linear1,               16, 512,    1, 512,    1,      128,     1,
MHA_head_1_cal_query,  16, 128,    1, 128,    1,      128,     1,
MHA_head_1_cal_key,    16, 128,    1, 128,    1,      128,     1,
MHA_head_1_cal_value,  16, 128,    1, 128,    1,      128,     1,
MHA_head_1_self_att1,  16, 128,    1, 128,    1,      128,     1,
MHA_head_1_self_att2,  16, 128,    1, 128,    1,      128,     1,
MHA_head_2_cal_query,  16, 128,    1, 128,    1,      128,     1,
MHA_head_2_cal_key,    16, 128,    1, 128,    1,      128,     1,
MHA_head_2_cal_value,  16, 128,    1, 128,    1,      128,     1,
MHA_head_2_self_att1,  16, 128,    1, 128,    1,      128,     1,
MHA_head_2_self_att2,  16, 128,    1, 128,    1,      128,     1,
MHA_head_3_cal_query,  16, 128,    1, 128,    1,      128,     1,
MHA_head_3_cal_key,    16, 128,    1, 128,    1,      128,     1,
MHA_head_3_cal_value,  16, 128,    1, 128,    1,      128,     1,
MHA_head_3_self_att1,  16, 128,    1, 128,    1,      128,     1,
MHA_head_3_self_att2,  16, 128,    1, 128,    1,      128,     1,
MHA_head_4_cal_query,  16, 128,    1, 128,    1,      128,     1,
MHA_head_4_cal_key,    16, 128,    1, 128,    1,      128,     1,
MHA_head_4_cal_value,  16, 128,    1, 128,    1,      128,     1,
MHA_head_4_self_att1,  16, 128,    1, 128,    1,      128,     1,
MHA_head_4_self_att2,  16, 128,    1, 128,    1,      128,     1,
MHA_concat_final_op,   16, 128,    1, 128,    1,      128,     1,
FFN1_input,            16, 128,    1, 128,    1,      512,     1,
FFN1_inter,            16, 512,    1, 512,    1,      128,     1,
FFN2_input,            16, 128,    1, 128,    1,      512,     1,
FFN2_inter,            16, 512,    1, 512,    1,      128,     1,
FFN3_input,            16, 128,    1, 128,    1,      512,     1,
FFN3_inter,            16, 512,    1, 512,    1,      128,     1,
FFN4_input,            16, 128,    1, 128,    1,      512,     1,
FFN4_inter,            16, 512,    1, 512,    1,      128,     1,
Linear2,               16, 128,    1, 128,    1,      512,     1,

Linear1,               16, 512,    1, 512,    1,      128,     1,
MHA_head_1_cal_query,  16, 128,    1, 128,    1,      128,     1,
MHA_head_1_cal_key,    16, 128,    1, 128,    1,      128,     1,
MHA_head_1_cal_value,  16, 128,    1, 128,    1,      128,     1,
MHA_head_1_self_att1,  16, 128,    1, 128,    1,      128,     1,
MHA_head_1_self_att2,  16, 128,    1, 128,    1,      128,     1,
MHA_head_2_cal_query,  16, 128,    1, 128,    1,      128,     1,
MHA_head_2_cal_key,    16, 128,    1, 128,    1,      128,     1,
MHA_head_2_cal_value,  16, 128,    1, 128,    1,      128,     1,
MHA_head_2_self_att1,  16, 128,    1, 128,    1,      128,     1,
MHA_head_2_self_att2,  16, 128,    1, 128,    1,      128,     1,
MHA_head_3_cal_query,  16, 128,    1, 128,    1,      128,     1,
MHA_head_3_cal_key,    16, 128,    1, 128,    1,      128,     1,
MHA_head_3_cal_value,  16, 128,    1, 128,    1,      128,     1,
MHA_head_3_self_att1,  16, 128,    1, 128,    1,      128,     1,
MHA_head_3_self_att2,  16, 128,    1, 128,    1,      128,     1,
MHA_head_4_cal_query,  16, 128,    1, 128,    1,      128,     1,
MHA_head_4_cal_key,    16, 128,    1, 128,    1,      128,     1,
MHA_head_4_cal_value,  16, 128,    1, 128,    1,      128,     1,
MHA_head_4_self_att1,  16, 128,    1, 128,    1,      128,     1,
MHA_head_4_self_att2,  16, 128,    1, 128,    1,      128,     1,
MHA_concat_final_op,   16, 128,    1, 128,    1,      128,     1,
FFN1_input,            16, 128,    1, 128,    1,      512,     1,
FFN1_inter,            16, 512,    1, 512,    1,      128,     1,
FFN2_input,            16, 128,    1, 128,    1,      512,     1,
FFN2_inter,            16, 512,    1, 512,    1,      128,     1,
FFN3_input,            16, 128,    1, 128,    1,      512,     1,
FFN3_inter,            16, 512,    1, 512,    1,      128,     1,
FFN4_input,            16, 128,    1, 128,    1,      512,     1,
FFN4_inter,            16, 512,    1, 512,    1,      128,     1,
Linear2,               16, 128,    1, 128,    1,      512,     1,

Linear1,               16, 512,    1, 512,    1,      128,     1,
MHA_head_1_cal_query,  16, 128,    1, 128,    1,      128,     1,
MHA_head_1_cal_key,    16, 128,    1, 128,    1,      128,     1,
MHA_head_1_cal_value,  16, 128,    1, 128,    1,      128,     1,
MHA_head_1_self_att1,  16, 128,    1, 128,    1,      128,     1,
MHA_head_1_self_att2,  16, 128,    1, 128,    1,      128,     1,
MHA_head_2_cal_query,  16, 128,    1, 128,    1,      128,     1,
MHA_head_2_cal_key,    16, 128,    1, 128,    1,      128,     1,
MHA_head_2_cal_value,  16, 128,    1, 128,    1,      128,     1,
MHA_head_2_self_att1,  16, 128,    1, 128,    1,      128,     1,
MHA_head_2_self_att2,  16, 128,    1, 128,    1,      128,     1,
MHA_head_3_cal_query,  16, 128,    1, 128,    1,      128,     1,
MHA_head_3_cal_key,    16, 128,    1, 128,    1,      128,     1,
MHA_head_3_cal_value,  16, 128,    1, 128,    1,      128,     1,
MHA_head_3_self_att1,  16, 128,    1, 128,    1,      128,     1,
MHA_head_3_self_att2,  16, 128,    1, 128,    1,      128,     1,
MHA_head_4_cal_query,  16, 128,    1, 128,    1,      128,     1,
MHA_head_4_cal_key,    16, 128,    1, 128,    1,      128,     1,
MHA_head_4_cal_value,  16, 128,    1, 128,    1,      128,     1,
MHA_head_4_self_att1,  16, 128,    1, 128,    1,      128,     1,
MHA_head_4_self_att2,  16, 128,    1, 128,    1,      128,     1,
MHA_concat_final_op,   16, 128,    1, 128,    1,      128,     1,
FFN1_input,            16, 128,    1, 128,    1,      512,     1,
FFN1_inter,            16, 512,    1, 512,    1,      128,     1,
FFN2_input,            16, 128,    1, 128,    1,      512,     1,
FFN2_inter,            16, 512,    1, 512,    1,      128,     1,
FFN3_input,            16, 128,    1, 128,    1,      512,     1,
FFN3_inter,            16, 512,    1, 512,    1,      128,     1,
FFN4_input,            16, 128,    1, 128,    1,      512,     1,
FFN4_inter,            16, 512,    1, 512,    1,      128,     1,
Linear2,               16, 128,    1, 128,    1,      512,     1,

Linear1,               16, 512,    1, 512,    1,      128,     1,
MHA_head_1_cal_query,  16, 128,    1, 128,    1,      128,     1,
MHA_head_1_cal_key,    16, 128,    1, 128,    1,      128,     1,
MHA_head_1_cal_value,  16, 128,    1, 128,    1,      128,     1,
MHA_head_1_self_att1,  16, 128,    1, 128,    1,      128,     1,
MHA_head_1_self_att2,  16, 128,    1, 128,    1,      128,     1,
MHA_head_2_cal_query,  16, 128,    1, 128,    1,      128,     1,
MHA_head_2_cal_key,    16, 128,    1, 128,    1,      128,     1,
MHA_head_2_cal_value,  16, 128,    1, 128,    1,      128,     1,
MHA_head_2_self_att1,  16, 128,    1, 128,    1,      128,     1,
MHA_head_2_self_att2,  16, 128,    1, 128,    1,      128,     1,
MHA_head_3_cal_query,  16, 128,    1, 128,    1,      128,     1,
MHA_head_3_cal_key,    16, 128,    1, 128,    1,      128,     1,
MHA_head_3_cal_value,  16, 128,    1, 128,    1,      128,     1,
MHA_head_3_self_att1,  16, 128,    1, 128,    1,      128,     1,
MHA_head_3_self_att2,  16, 128,    1, 128,    1,      128,     1,
MHA_head_4_cal_query,  16, 128,    1, 128,    1,      128,     1,
MHA_head_4_cal_key,    16, 128,    1, 128,    1,      128,     1,
MHA_head_4_cal_value,  16, 128,    1, 128,    1,      128,     1,
MHA_head_4_self_att1,  16, 128,    1, 128,    1,      128,     1,
MHA_head_4_self_att2,  16, 128,    1, 128,    1,      128,     1,
MHA_concat_final_op,   16, 128,    1, 128,    1,      128,     1,
FFN1_input,            16, 128,    1, 128,    1,      512,     1,
FFN1_inter,            16, 512,    1, 512,    1,      128,     1,
FFN2_input,            16, 128,    1, 128,    1,      512,     1,
FFN2_inter,            16, 512,    1, 512,    1,      128,     1,
FFN3_input,            16, 128,    1, 128,    1,      512,     1,
FFN3_inter,            16, 512,    1, 512,    1,      128,     1,
FFN4_input,            16, 128,    1, 128,    1,      512,     1,
FFN4_inter,            16, 512,    1, 512,    1,      128,     1,
Linear2,               16, 128,    1, 128,    1,      512,     1,

Linear1,               16, 512,    1, 512,    1,      128,     1,
MHA_head_1_cal_query,  16, 128,    1, 128,    1,      128,     1,
MHA_head_1_cal_key,    16, 128,    1, 128,    1,      128,     1,
MHA_head_1_cal_value,  16, 128,    1, 128,    1,      128,     1,
MHA_head_1_self_att1,  16, 128,    1, 128,    1,      128,     1,
MHA_head_1_self_att2,  16, 128,    1, 128,    1,      128,     1,
MHA_head_2_cal_query,  16, 128,    1, 128,    1,      128,     1,
MHA_head_2_cal_key,    16, 128,    1, 128,    1,      128,     1,
MHA_head_2_cal_value,  16, 128,    1, 128,    1,      128,     1,
MHA_head_2_self_att1,  16, 128,    1, 128,    1,      128,     1,
MHA_head_2_self_att2,  16, 128,    1, 128,    1,      128,     1,
MHA_head_3_cal_query,  16, 128,    1, 128,    1,      128,     1,
MHA_head_3_cal_key,    16, 128,    1, 128,    1,      128,     1,
MHA_head_3_cal_value,  16, 128,    1, 128,    1,      128,     1,
MHA_head_3_self_att1,  16, 128,    1, 128,    1,      128,     1,
MHA_head_3_self_att2,  16, 128,    1, 128,    1,      128,     1,
MHA_head_4_cal_query,  16, 128,    1, 128,    1,      128,     1,
MHA_head_4_cal_key,    16, 128,    1, 128,    1,      128,     1,
MHA_head_4_cal_value,  16, 128,    1, 128,    1,      128,     1,
MHA_head_4_self_att1,  16, 128,    1, 128,    1,      128,     1,
MHA_head_4_self_att2,  16, 128,    1, 128,    1,      128,     1,
MHA_concat_final_op,   16, 128,    1, 128,    1,      128,     1,
FFN1_input,            16, 128,    1, 128,    1,      512,     1,
FFN1_inter,            16, 512,    1, 512,    1,      128,     1,
FFN2_input,            16, 128,    1, 128,    1,      512,     1,
FFN2_inter,            16, 512,    1, 512,    1,      128,     1,
FFN3_input,            16, 128,    1, 128,    1,      512,     1,
FFN3_inter,            16, 512,    1, 512,    1,      128,     1,
FFN4_input,            16, 128,    1, 128,    1,      512,     1,
FFN4_inter,            16, 512,    1, 512,    1,      128,     1,
Linear2,               16, 128,    1, 128,    1,      512,     1,

Linear1,               16, 512,    1, 512,    1,      128,     1,
MHA_head_1_cal_query,  16, 128,    1, 128,    1,      128,     1,
MHA_head_1_cal_key,    16, 128,    1, 128,    1,      128,     1,
MHA_head_1_cal_value,  16, 128,    1, 128,    1,      128,     1,
MHA_head_1_self_att1,  16, 128,    1, 128,    1,      128,     1,
MHA_head_1_self_att2,  16, 128,    1, 128,    1,      128,     1,
MHA_head_2_cal_query,  16, 128,    1, 128,    1,      128,     1,
MHA_head_2_cal_key,    16, 128,    1, 128,    1,      128,     1,
MHA_head_2_cal_value,  16, 128,    1, 128,    1,      128,     1,
MHA_head_2_self_att1,  16, 128,    1, 128,    1,      128,     1,
MHA_head_2_self_att2,  16, 128,    1, 128,    1,      128,     1,
MHA_head_3_cal_query,  16, 128,    1, 128,    1,      128,     1,
MHA_head_3_cal_key,    16, 128,    1, 128,    1,      128,     1,
MHA_head_3_cal_value,  16, 128,    1, 128,    1,      128,     1,
MHA_head_3_self_att1,  16, 128,    1, 128,    1,      128,     1,
MHA_head_3_self_att2,  16, 128,    1, 128,    1,      128,     1,
MHA_head_4_cal_query,  16, 128,    1, 128,    1,      128,     1,
MHA_head_4_cal_key,    16, 128,    1, 128,    1,      128,     1,
MHA_head_4_cal_value,  16, 128,    1, 128,    1,      128,     1,
MHA_head_4_self_att1,  16, 128,    1, 128,    1,      128,     1,
MHA_head_4_self_att2,  16, 128,    1, 128,    1,      128,     1,
MHA_concat_final_op,   16, 128,    1, 128,    1,      128,     1,
FFN1_input,            16, 128,    1, 128,    1,      512,     1,
FFN1_inter,            16, 512,    1, 512,    1,      128,     1,
FFN2_input,            16, 128,    1, 128,    1,      512,     1,
FFN2_inter,            16, 512,    1, 512,    1,      128,     1,
FFN3_input,            16, 128,    1, 128,    1,      512,     1,
FFN3_inter,            16, 512,    1, 512,    1,      128,     1,
FFN4_input,            16, 128,    1, 128,    1,      512,     1,
FFN4_inter,            16, 512,    1, 512,    1,      128,     1,
Linear2,               16, 128,    1, 128,    1,      512,     1,

Linear1,               16, 512,    1, 512,    1,      128,     1,
MHA_head_1_cal_query,  16, 128,    1, 128,    1,      128,     1,
MHA_head_1_cal_key,    16, 128,    1, 128,    1,      128,     1,
MHA_head_1_cal_value,  16, 128,    1, 128,    1,      128,     1,
MHA_head_1_self_att1,  16, 128,    1, 128,    1,      128,     1,
MHA_head_1_self_att2,  16, 128,    1, 128,    1,      128,     1,
MHA_head_2_cal_query,  16, 128,    1, 128,    1,      128,     1,
MHA_head_2_cal_key,    16, 128,    1, 128,    1,      128,     1,
MHA_head_2_cal_value,  16, 128,    1, 128,    1,      128,     1,
MHA_head_2_self_att1,  16, 128,    1, 128,    1,      128,     1,
MHA_head_2_self_att2,  16, 128,    1, 128,    1,      128,     1,
MHA_head_3_cal_query,  16, 128,    1, 128,    1,      128,     1,
MHA_head_3_cal_key,    16, 128,    1, 128,    1,      128,     1,
MHA_head_3_cal_value,  16, 128,    1, 128,    1,      128,     1,
MHA_head_3_self_att1,  16, 128,    1, 128,    1,      128,     1,
MHA_head_3_self_att2,  16, 128,    1, 128,    1,      128,     1,
MHA_head_4_cal_query,  16, 128,    1, 128,    1,      128,     1,
MHA_head_4_cal_key,    16, 128,    1, 128,    1,      128,     1,
MHA_head_4_cal_value,  16, 128,    1, 128,    1,      128,     1,
MHA_head_4_self_att1,  16, 128,    1, 128,    1,      128,     1,
MHA_head_4_self_att2,  16, 128,    1, 128,    1,      128,     1,
MHA_concat_final_op,   16, 128,    1, 128,    1,      128,     1,
FFN1_input,            16, 128,    1, 128,    1,      512,     1,
FFN1_inter,            16, 512,    1, 512,    1,      128,     1,
FFN2_input,            16, 128,    1, 128,    1,      512,     1,
FFN2_inter,            16, 512,    1, 512,    1,      128,     1,
FFN3_input,            16, 128,    1, 128,    1,      512,     1,
FFN3_inter,            16, 512,    1, 512,    1,      128,     1,
FFN4_input,            16, 128,    1, 128,    1,      512,     1,
FFN4_inter,            16, 512,    1, 512,    1,      128,     1,
Linear2,               16, 128,    1, 128,    1,      512,     1,

Linear1,               16, 512,    1, 512,    1,      128,     1,
MHA_head_1_cal_query,  16, 128,    1, 128,    1,      128,     1,
MHA_head_1_cal_key,    16, 128,    1, 128,    1,      128,     1,
MHA_head_1_cal_value,  16, 128,    1, 128,    1,      128,     1,
MHA_head_1_self_att1,  16, 128,    1, 128,    1,      128,     1,
MHA_head_1_self_att2,  16, 128,    1, 128,    1,      128,     1,
MHA_head_2_cal_query,  16, 128,    1, 128,    1,      128,     1,
MHA_head_2_cal_key,    16, 128,    1, 128,    1,      128,     1,
MHA_head_2_cal_value,  16, 128,    1, 128,    1,      128,     1,
MHA_head_2_self_att1,  16, 128,    1, 128,    1,      128,     1,
MHA_head_2_self_att2,  16, 128,    1, 128,    1,      128,     1,
MHA_head_3_cal_query,  16, 128,    1, 128,    1,      128,     1,
MHA_head_3_cal_key,    16, 128,    1, 128,    1,      128,     1,
MHA_head_3_cal_value,  16, 128,    1, 128,    1,      128,     1,
MHA_head_3_self_att1,  16, 128,    1, 128,    1,      128,     1,
MHA_head_3_self_att2,  16, 128,    1, 128,    1,      128,     1,
MHA_head_4_cal_query,  16, 128,    1, 128,    1,      128,     1,
MHA_head_4_cal_key,    16, 128,    1, 128,    1,      128,     1,
MHA_head_4_cal_value,  16, 128,    1, 128,    1,      128,     1,
MHA_head_4_self_att1,  16, 128,    1, 128,    1,      128,     1,
MHA_head_4_self_att2,  16, 128,    1, 128,    1,      128,     1,
MHA_concat_final_op,   16, 128,    1, 128,    1,      128,     1,
FFN1_input,            16, 128,    1, 128,    1,      512,     1,
FFN1_inter,            16, 512,    1, 512,    1,      128,     1,
FFN2_input,            16, 128,    1, 128,    1,      512,     1,
FFN2_inter,            16, 512,    1, 512,    1,      128,     1,
FFN3_input,            16, 128,    1, 128,    1,      512,     1,
FFN3_inter,            16, 512,    1, 512,    1,      128,     1,
FFN4_input,            16, 128,    1, 128,    1,      512,     1,
FFN4_inter,            16, 512,    1, 512,    1,      128,     1,
Linear2,               16, 128,    1, 128,    1,      512,     1,

Linear1,               16, 512,    1, 512,    1,      128,     1,
MHA_head_1_cal_query,  16, 128,    1, 128,    1,      128,     1,
MHA_head_1_cal_key,    16, 128,    1, 128,    1,      128,     1,
MHA_head_1_cal_value,  16, 128,    1, 128,    1,      128,     1,
MHA_head_1_self_att1,  16, 128,    1, 128,    1,      128,     1,
MHA_head_1_self_att2,  16, 128,    1, 128,    1,      128,     1,
MHA_head_2_cal_query,  16, 128,    1, 128,    1,      128,     1,
MHA_head_2_cal_key,    16, 128,    1, 128,    1,      128,     1,
MHA_head_2_cal_value,  16, 128,    1, 128,    1,      128,     1,
MHA_head_2_self_att1,  16, 128,    1, 128,    1,      128,     1,
MHA_head_2_self_att2,  16, 128,    1, 128,    1,      128,     1,
MHA_head_3_cal_query,  16, 128,    1, 128,    1,      128,     1,
MHA_head_3_cal_key,    16, 128,    1, 128,    1,      128,     1,
MHA_head_3_cal_value,  16, 128,    1, 128,    1,      128,     1,
MHA_head_3_self_att1,  16, 128,    1, 128,    1,      128,     1,
MHA_head_3_self_att2,  16, 128,    1, 128,    1,      128,     1,
MHA_head_4_cal_query,  16, 128,    1, 128,    1,      128,     1,
MHA_head_4_cal_key,    16, 128,    1, 128,    1,      128,     1,
MHA_head_4_cal_value,  16, 128,    1, 128,    1,      128,     1,
MHA_head_4_self_att1,  16, 128,    1, 128,    1,      128,     1,
MHA_head_4_self_att2,  16, 128,    1, 128,    1,      128,     1,
MHA_concat_final_op,   16, 128,    1, 128,    1,      128,     1,
FFN1_input,            16, 128,    1, 128,    1,      512,     1,
FFN1_inter,            16, 512,    1, 512,    1,      128,     1,
FFN2_input,            16, 128,    1, 128,    1,      512,     1,
FFN2_inter,            16, 512,    1, 512,    1,      128,     1,
FFN3_input,            16, 128,    1, 128,    1,      512,     1,
FFN3_inter,            16, 512,    1, 512,    1,      128,     1,
FFN4_input,            16, 128,    1, 128,    1,      512,     1,
FFN4_inter,            16, 512,    1, 512,    1,      128,     1,
Linear2,               16, 128,    1, 128,    1,      512,     1,

Linear1,               16, 512,    1, 512,    1,      128,     1,
MHA_head_1_cal_query,  16, 128,    1, 128,    1,      128,     1,
MHA_head_1_cal_key,    16, 128,    1, 128,    1,      128,     1,
MHA_head_1_cal_value,  16, 128,    1, 128,    1,      128,     1,
MHA_head_1_self_att1,  16, 128,    1, 128,    1,      128,     1,
MHA_head_1_self_att2,  16, 128,    1, 128,    1,      128,     1,
MHA_head_2_cal_query,  16, 128,    1, 128,    1,      128,     1,
MHA_head_2_cal_key,    16, 128,    1, 128,    1,      128,     1,
MHA_head_2_cal_value,  16, 128,    1, 128,    1,      128,     1,
MHA_head_2_self_att1,  16, 128,    1, 128,    1,      128,     1,
MHA_head_2_self_att2,  16, 128,    1, 128,    1,      128,     1,
MHA_head_3_cal_query,  16, 128,    1, 128,    1,      128,     1,
MHA_head_3_cal_key,    16, 128,    1, 128,    1,      128,     1,
MHA_head_3_cal_value,  16, 128,    1, 128,    1,      128,     1,
MHA_head_3_self_att1,  16, 128,    1, 128,    1,      128,     1,
MHA_head_3_self_att2,  16, 128,    1, 128,    1,      128,     1,
MHA_head_4_cal_query,  16, 128,    1, 128,    1,      128,     1,
MHA_head_4_cal_key,    16, 128,    1, 128,    1,      128,     1,
MHA_head_4_cal_value,  16, 128,    1, 128,    1,      128,     1,
MHA_head_4_self_att1,  16, 128,    1, 128,    1,      128,     1,
MHA_head_4_self_att2,  16, 128,    1, 128,    1,      128,     1,
MHA_concat_final_op,   16, 128,    1, 128,    1,      128,     1,
FFN1_input,            16, 128,    1, 128,    1,      512,     1,
FFN1_inter,            16, 512,    1, 512,    1,      128,     1,
FFN2_input,            16, 128,    1, 128,    1,      512,     1,
FFN2_inter,            16, 512,    1, 512,    1,      128,     1,
FFN3_input,            16, 128,    1, 128,    1,      512,     1,
FFN3_inter,            16, 512,    1, 512,    1,      128,     1,
FFN4_input,            16, 128,    1, 128,    1,      512,     1,
FFN4_inter,            16, 512,    1, 512,    1,      128,     1,
Linear2,               16, 128,    1, 128,    1,      512,     1,

Linear1,               16, 512,    1, 512,    1,      128,     1,
MHA_head_1_cal_query,  16, 128,    1, 128,    1,      128,     1,
MHA_head_1_cal_key,    16, 128,    1, 128,    1,      128,     1,
MHA_head_1_cal_value,  16, 128,    1, 128,    1,      128,     1,
MHA_head_1_self_att1,  16, 128,    1, 128,    1,      128,     1,
MHA_head_1_self_att2,  16, 128,    1, 128,    1,      128,     1,
MHA_head_2_cal_query,  16, 128,    1, 128,    1,      128,     1,
MHA_head_2_cal_key,    16, 128,    1, 128,    1,      128,     1,
MHA_head_2_cal_value,  16, 128,    1, 128,    1,      128,     1,
MHA_head_2_self_att1,  16, 128,    1, 128,    1,      128,     1,
MHA_head_2_self_att2,  16, 128,    1, 128,    1,      128,     1,
MHA_head_3_cal_query,  16, 128,    1, 128,    1,      128,     1,
MHA_head_3_cal_key,    16, 128,    1, 128,    1,      128,     1,
MHA_head_3_cal_value,  16, 128,    1, 128,    1,      128,     1,
MHA_head_3_self_att1,  16, 128,    1, 128,    1,      128,     1,
MHA_head_3_self_att2,  16, 128,    1, 128,    1,      128,     1,
MHA_head_4_cal_query,  16, 128,    1, 128,    1,      128,     1,
MHA_head_4_cal_key,    16, 128,    1, 128,    1,      128,     1,
MHA_head_4_cal_value,  16, 128,    1, 128,    1,      128,     1,
MHA_head_4_self_att1,  16, 128,    1, 128,    1,      128,     1,
MHA_head_4_self_att2,  16, 128,    1, 128,    1,      128,     1,
MHA_concat_final_op,   16, 128,    1, 128,    1,      128,     1,
FFN1_input,            16, 128,    1, 128,    1,      512,     1,
FFN1_inter,            16, 512,    1, 512,    1,      128,     1,
FFN2_input,            16, 128,    1, 128,    1,      512,     1,
FFN2_inter,            16, 512,    1, 512,    1,      128,     1,
FFN3_input,            16, 128,    1, 128,    1,      512,     1,
FFN3_inter,            16, 512,    1, 512,    1,      128,     1,
FFN4_input,            16, 128,    1, 128,    1,      512,     1,
FFN4_inter,            16, 512,    1, 512,    1,      128,     1,
Linear2,               16, 128,    1, 128,    1,      512,     1,
